Project_2/models/ex3b.pth (torch, 286815 bytes, 23 tensors)

weight f4 [16, 1, 3, 3]
00000000: c8ba 663d b8d0 a33e 2051 bd3e 0bc1 403d
00000010: 1156 0d3d 6166 4ebe ed68 4e3c 4e6c 8cbe
00000020: b79d 2dbe 07bd 4c3e 3957 65be 9368 dabd
00000030: 0093 6cbe b4cb 26be 7c4a 91bd 8580 58be
00000040: 802f 19be 533e 0cbe e4ff fc3d 0408 2e3e
00000050: babb 9a3e 0895 4c3e 903e 873e 51d0 73be
00000060: ac2f 1c3e 6107 5abe 7f05 f9be 0cfd b53e
00000070: 2707 ab3e 5165 103e 0fe3 643b f144 5bbd
00000080: 7c1e 8abd 2f3c c1bd d850 223c 53f0 89bc
00000090: 15e2 193e 7740 f2bd aca1 32be 859b 1e3f
000000a0: 4b82 813d 8083 d4bd 8908 2e3e 1795 d9bd
000000b0: 55cd 8c3c ffdd 4dbd 44bf e1be e105 0abe
000000c0: 3414 4a3d 4098 36bd cf90 303e 0273 5a3e
000000d0: ca88 503e 668f 6f3e d835 f8bc 2272 09bd
000000e0: 358b 1cbd 9f15 763d f3f3 873f dfe2 e63d
000000f0: 15fd b4bd 4072 773c 8f10 7ebe 53ba 803e
00000100: 1c29 0d3e d8d3 24be 8d1a bd3e 6b7a a53e
00000110: e340 8b3e 3620 65bd 2d2a 8cbe 84de 09bc
00000120: b106 35be 1642 cf3c 7d4c 453e ea51 93be
00000130: c241 38be 14b9 693e 5cbf 813d 03c5 523e
00000140: f49b 403e 4eda 833c b085 38be a32c ea3a
00000150: 3fbc 2cbe 5485 94bd 4d5d df3c 70b6 5c3e
00000160: 246a a03d 33f1 ca3e 1b60 0b3f 028a c93d
00000170: 39e0 babd dd20 58bd 207a 93bc 4b49 a63e
00000180: 1b25 14bd 1fa9 2f3e 4906 173e 3a82 9ebe
00000190: 56b5 ef3d 10cf 20be 3986 6dbc b99e 383e
000001a0: 1f0a d53b 4f53 033d 547a 0e3f 5e39 4ebd
000001b0: 3882 2f3e 3411 8a3e 33ab ba3d a546 643e
000001c0: 63d6 803b 8770 07be ccf7 9e3e 15c1 143e
000001d0: ce42 0bbe a5ba bd3b d1f4 0cbd c4e6 6cbd
000001e0: 688b 173e e5c4 81bd 1588 b6be ddf9 a33e
000001f0: 0fed 813e 1492 59be ebef 8f3d a791 b6bc
00000200: 423f 313d 99ad 183e 84af 7f3e 478f 303e
00000210: f911 8e3e 6fdd f63e 4f58 823e fcbd 083e
00000220: dec7 d1bc c6f3 743d 0c3e efbc 6dcc 7bbe
00000230: 3d12 ba3a df06 06bd 58da 79be 962f 053c
0.056330472 0.31995177 0.36975956 0.0470591 0.034505907 -0.20156242 0.012598258 -0.2742638
-0.16954695 0.19993983 -0.22396554 -0.10664477 -0.23102951 -0.16288644 -0.07094285 -0.21142776
-0.14959526 -0.1369565 0.12353495 0.16995245 0.3022135 0.19978726 0.2641492 -0.23809935
0.1525256 -0.21291877 -0.48637006 0.35544622 0.33403894 0.14101149 0.0034925377 -0.053532545
-0.06744096 -0.09435307 0.00990697 -0.016838228 0.1502765 -0.11828702 -0.17444485 0.61956054
0.063236795 -0.10376644 0.16995443 -0.1062414 0.017187754 -0.05026054 -0.44091237 -0.13478805
0.049335673 -0.04457879 0.1724274 0.21332934 0.20364681 0.23394546 -0.030299112 -0.03355611
-0.038218696 0.060079213 1.0621322 0.11273741 -0.08837334 0.015102923 -0.24811004 0.25142154
0.13785213 -0.16096437 0.3693432 0.3231996 0.27197942 -0.055938922 -0.27375928 -0.008414868
-0.17678334 0.025300067 0.19267459 -0.28773433 -0.17993835 0.22824508 0.06335327 0.20582967
0.18809491 0.016095307 -0.18019748 0.0017866086 -0.16868685 -0.07251993 0.027266169 0.2155397
0.07832745 0.39637145 0.5444352 0.09840776 -0.09124798 -0.052765716 -0.01800257 0.32477793
-0.0361682 0.17154358 0.14748491 -0.3095873 0.11704509 -0.15703988 -0.014497333 0.18029298
0.0065014507 0.03206187 0.5565541 -0.05034768 0.17139518 0.2696625 0.09114685 0.22292574
0.003931807 -0.1322652 0.3104843 0.1452678 -0.13599703 0.005790072 -0.034413163 -0.057837263
0.14799273 -0.06336383 -0.35650697 0.32026568 0.25376174 -0.2124713 0.070281826 -0.02228625
0.043273218 0.14909972 0.24969298 0.17242156 0.27748087 0.48215815 0.25458 0.13353723
-0.025608 0.059802793 -0.029204391 -0.24589701 0.0014196109 -0.032721397 -0.24399698 0.008129021

bias f4 [16]
00000000: 476a 53be fb67 eb3d 95f0 a5bd 5ec8 97bb
00000010: 54d3 963b a65b 54be c5ad af3e 9c6c 333b
00000020: 1821 84be 57da ad3e b06c 5a3e 6594 763e
00000030: 01c1 d5bb fd57 13bc 8464 623a 2243 c83e
-0.2064601 0.11494442 -0.08102528 -0.00463204 0.004602829 -0.20738086 0.34312263 0.0027377969
-0.258065 0.33955643 0.21330523 0.24080046 -0.006523252 -0.008993146 0.0008636194 0.39113718

weight f4 [16]
00000000: cff9 633f af1d 643f 9cc6 5c3f f159 823f
00000010: 96ce 853f 44bd 5f3f 1974 7f3f 2847 663f
00000020: bea9 613f a023 863f 6463 823f 1a3d 783f
00000030: 21eb 853f 7053 643f 6271 a33f 151e 763f
0.8905305 0.89107794 0.86240554 1.0183698 1.045367 0.8739817 0.99786526 0.89952326
0.8814963 1.0479622 1.0186582 0.96968234 1.0462381 0.89189816 1.2768977 0.9613965

bias f4 [16]
00000000: b26a 5ebe 6279 29be 6592 c43e 9c8c a23e
00000010: a8ff 263e fcad 26be 51c3 813e 1c50 3cbf
00000020: 7b77 7abe 00af d43d 5b64 783d 3241 3fbe
00000030: 2d77 aebe 07f1 99be 721e 57be 050e 9cbd
-0.21720389 -0.1655021 0.3839294 0.317479 0.16308463 -0.16277307 0.25344327 -0.7355974
-0.2445964 0.10384941 0.06064258 -0.18677214 -0.340753 -0.30066702 -0.21007708 -0.076198615

running_mean f4 [16]
00000000: 6d8d 9e3c e793 b03d fd8a 563d 6889 aa3d
00000010: b881 ad3d 2813 a63c 1c54 e63e 99d9 f33d
00000020: 000a 883c d401 c33e 467a b63e b102 943e
00000030: 9b42 003e 90b1 e73c b69c 623e 6353 b03e
0.019354546 0.0862196 0.052378643 0.083269894 0.084720075 0.020272806 0.44986045 0.11906738
0.01660633 0.38087332 0.35640162 0.28908303 0.12525408 0.02828291 0.22130093 0.3443862

running_var f4 [16]
00000000: 3671 c73b 9494 203b d5cd bf3c afcb 153d
00000010: 63a0 1d3d 09dd dd3b 6048 a43d 951b 873d
00000020: 3542 8e3b 9811 a43c 6b12 a13d 78f2 f03c
00000030: d8dc 953d 457d 173c 812c 533e 2b85 723c
0.006086494 0.0024502622 0.023413578 0.0365712 0.038483035 0.006770734 0.08021617 0.06597058
0.0043413886 0.02002792 0.07864841 0.029412493 0.07317513 0.009246175 0.20622446 0.0148022575

weight f4 [8, 16, 3, 3]
00000000: d4cf 0cbe 7507 14bd 7935 8dbb 5f00 80bd
00000010: 9feb 4f3c ec40 19bd 8298 1f3d bd7c 5c3d
00000020: b1b9 b2bb 447c 64be b8aa 0e3d ed82 4d3c
00000030: 16fe 133d a83e 16bd 305d 853a 6dfd c9bc
00000040: 41b6 22bd 51c0 853d 43fd 71bd 85ba e83b
00000050: 74b7 93bb f973 8dbc 866f df3c b17e 253d
00000060: c204 86bd a231 223b fcee 113d 2f36 4ebc
00000070: f5a8 cf3d ed19 63bc ba90 3ebd 52e9 873c
00000080: a421 a03d 3728 f53c 4eb7 b63d a540 953d
00000090: 8582 213c f20a 9ebd 3f4e f4bc e1e3 2ebc
000000a0: cbc7 53bd ae0c a83b 8e0e a2bd 1202 e1bd
000000b0: e50d 763c 6237 85bd 51e2 1fbd d4b6 27bd
000000c0: 6054 72be 2bff d8bd a0e6 91bc 7f68 393d
000000d0: 392f 29bd c538 afbc 1160 1a3c ae81 ef3c
000000e0: ec47 3dbc ee91 bb3d 1c26 2bbd cee1 c23c
000000f0: 9170 92bd 9f6d 0bbc c4f8 6c3c 9757 bd3b
00000100: 2461 03bd 333d 59bd 911c dc3c 1773 01be
00000110: abc2 febc 1063 c53d ccf0 64bd 75b6 93bd
00000120: 989a 10bc b4e6 0fbe c57d 00bd 87d9 3dbd
00000130: 10cb cebd 7651 5abc f0ea a03d 79cf 503c
00000140: fafb 21bd 50cf 623e 34f4 6fbc 2721 4b3d
00000150: 5791 84bb aec5 dbbc d9d0 bebc 8e2f 14bc
00000160: 49f0 9f3d a58a 253d 21f5 eb3c 7470 c13d
00000170: 2cf5 01bc 0717 653e 0e83 493e 88a6 2c3d
00000180: 1240 10bc d30b 0c3c ebce e73d edc4 473e
00000190: 574f e73d 2c99 453c e17b 9cbb f6a0 c5bd
000001a0: e898 80bd 81de 56bd e84f 2abd 57ef 633c
000001b0: 2faf f03d d612 ef3d b9c2 d63d 7b8b 063c
000001c0: 7ca2 003e 1629 4f3d 7462 ccbd 6676 83bd
000001d0: df1c a23c 132a 943c 5b19 acbc f842 89bd
000001e0: bac6 3a3c 3bfa 34bd 8b2f 82bd 4adf 873d
000001f0: 5f84 05bd e9cd a2bd 73c9 903d 2616 773d
00000200: 019b b13c 816f eb3d f020 8a3d 69b1 cdbd
00000210: b304 fdbd 3f45 fc3d 16a4 993d 3729 38be
00000220: ccff 45be 4875 4ebd a686 81bd 3b69 0fbd
00000230: e11a d9bd e62f f43c 9e73 7fbc eccd 64bc
00000240: 8beb 03bd 76e8 1f3d 0ec8 263d 5274 213b
00000250: 7fa5 d5bc 7415 933c 39dd b6bc e40f b6bd
00000260: c373 fabc a123 303d 47be c23c ebbc 243c
00000270: ccc4 a43a 20c5 c5bd b8d9 6b3d 73ec 4a3c
00000280: 585b 5cbd b213 38bc 276d 403d 92a7 9d3d
00000290: 9b87 ce3d 000a 4abd 7e0b 13be 2aa3 a93c
000002a0: ed60 963d 1c9e b5bd 8d00 3bbd 78b5 90bb
000002b0: 1e17 413d 1ec8 6d3b 9361 0cbd bd0d 463d
000002c0: f407 013d b55c 94bb 0d98 913d 93cb e13d
000002d0: d396 093c 76eb 123d 72f5 ad3b 62ef 853d
000002e0: 4500 7dbc 8f9b 04bd 50d0 c8bc b84b cf3d
000002f0: c6ed 873e 818f 4b3b 2e0d 9fba d216 03bd
00000300: 5fa6 813d 8254 f5bc e14d 3bbd fe19 053d
00000310: 4a15 98bd 9bcd 99bd c27d fd3c c154 2b3c
00000320: 30e7 0ebd 0a06 02bd ea1c 6b3c 8445 9f3c
00000330: 3238 27bd dba6 903d 1078 653e 3be4 b63b
00000340: 1f7e c8bd 067f 233c 9c57 a43d 1c06 0d3c
00000350: 995e 20be e631 f23d c8cf 0c3d 4ed3 5f3d
00000360: 0e0d a73c cc4c 9fbb 659b 4e3c ce9a 2bbb
00000370: ca54 813d 95d9 cd3c 5a08 80bc 2000 76bd
00000380: 8efc 65bd 4680 023d 991e fa3c a899 b0bd
00000390: 1526 313c 8274 8e3d 0213 0d3e e2ce 273c
000003a0: 7067 f43d ab47 853d 305d 18bb c609 86bc
000003b0: f5d8 a6bd e985 15bc 45b1 a4bd 0c91 1c3d
000003c0: ca78 81bd 558f 963d df5c 723d 1954 2e3c
000003d0: e3de 053d 5113 3abc 2099 1cbc 1580 6d3b
000003e0: 7aa4 643d f32d 56bc cd92 fe3d 04fd 373e
000003f0: a8eb 023c b260 98bc 453f 0ebe 514c b0bc
-0.13751155 -0.036139924 -0.004309353 -0.06250071 0.012690454 -0.03741543 0.038963802 0.053829897
-0.005454265 -0.22313029 0.03483078 0.012543422 0.036130987 -0.036680847 0.0010174867 -0.024656976
-0.039724592 0.06530822 -0.05907942 0.007102313 -0.0045079533 -0.017267214 0.027274858 0.040404025
-0.06543876 0.0024748822 0.035628304 -0.012586161 0.10139648 -0.013861162 -0.04652474 0.016590748
0.078189164 0.029926402 0.08921681 0.072877206 0.009857778 -0.077169314 -0.029822467 -0.010674448
-0.05170421 0.0051284647 -0.07912932 -0.10986723 0.015017961 -0.06504704 -0.03903419 -0.040945843
-0.23664999 -0.105955444 -0.017810166 0.04526567 -0.0413048 -0.021389375 0.009422318 0.02923664
-0.011552792 0.09158693 -0.04178439 0.023789313 -0.071503766 -0.008510022 0.014463607 0.005778264
-0.032075062 -0.05303688 0.02686909 -0.1264156 -0.031098684 0.09638035 -0.055893704 -0.07212535
-0.0088259205 -0.1405285 -0.031369943 -0.04635003 -0.10097325 -0.013325086 0.07857311 0.012744778
-0.039546944 0.22149396 -0.014645625 0.049592163 -0.004045646 -0.02682766 -0.023292946 -0.009044541
0.07809503 0.040415425 0.02880341 0.09445277 -0.007931989 0.22372065 0.196789 0.042151004
-0.008804338 0.008547741 0.11318763 0.19508715 0.1129443 0.012060445 -0.0047755097 -0.096498415
-0.062791646 -0.05245829 -0.04158011 0.0139120435 0.117521636 0.116735145 0.10486359 0.008211966
0.12561983 0.050576292 -0.09979716 -0.06419067 0.019789157 0.018086469 -0.021008184 -0.067022264
0.011399919 -0.04418395 -0.06356724 0.06634386 -0.032596942 -0.079494305 0.070696734 0.060323857
0.021680357 0.11495877 0.067445636 -0.10043604 -0.12354412 0.12317895 0.07502 -0.17984472
-0.1933586 -0.050404817 -0.0632451 -0.035012465 -0.1060083 0.029807996 -0.01559153 -0.013965111
-0.032207053 0.03904005 0.04071813 0.0024635983 -0.026079891 0.017954566 -0.022322284 -0.0888975
-0.030572778 0.04300273 0.023772372 0.010054807 0.0012570857 -0.09656739 0.05758068 0.012385475
-0.05379805 -0.0112351645 0.046979096 0.07697977 0.100844584 -0.049325943 -0.14359853 0.020707686
0.07342706 -0.088680476 -0.045654822 -0.004416164 0.047141187 0.003628261 -0.03427274 0.048352946
0.031501725 -0.004527653 0.071090795 0.11025157 0.008397776 0.035869084 0.0053088004 0.06539799
-0.015441959 -0.032374915 -0.024513394 0.10121864 0.26548594 0.0031060877 -0.0012134665 -0.032004185
0.06330561 -0.029947523 -0.045728568 0.03249549 -0.074259356 -0.07509919 0.030943755 0.010457219
-0.034888446 -0.03174404 0.014350155 0.019442327 -0.040825076 0.07063075 0.22409081 0.0055814064
-0.09789681 0.009979015 0.08024523 0.008607414 -0.15661086 0.118259236 0.034377843 0.054644875
0.020391967 -0.00486145 0.012610291 -0.00261848 0.06315 0.025128165 -0.015628982 -0.060058713
-0.056149058 0.031860612 0.030532168 -0.086230576 0.010812302 0.06955816 0.13776782 0.010242196
0.11933792 0.0650781 -0.0023248903 -0.016362082 -0.0814685 -0.009126165 -0.08041624 0.038224265
-0.06321867 0.07351557 0.0591706 0.010640168 0.032683264 -0.011357144 -0.009557992 0.0036239673
0.05582092 -0.013072479 0.12430344 0.17967612 0.007990755 -0.018600795 -0.13891323 -0.021520765

bias f4 [8]
00000000: f6f6 003f 1788 313f 9b62 833e 5a5c 373f
00000010: 3fe5 80bd 5ae5 483f bca5 d23e 91af 263f
0.5037683 0.6934828 0.25661168 0.7162529 -0.06293725 0.7847496 0.4114207 0.65111643

weight f4 [8]
00000000: 0ce2 7b3f 77bb 883f 254f 363f 1c61 833f
00000010: a83d 0b3f ac94 923f a446 5b3f fbe0 7f3f
0.98391795 1.068221 0.71214515 1.026401 0.54390955 1.1451621 0.85654664 0.9995267

bias f4 [8]
00000000: 68b3 b7bc 771c 9d3c 3fff 54bd 01a7 f7bc
00000010: 3a6c 92be 30fe 07bc 0ee2 34bc 9a0e 0bbd
-0.022424415 0.019178612 -0.052001234 -0.030231 -0.28598195 -0.008300349 -0.011040224 -0.033949472

running_mean f4 [8]
00000000: 9edb 6e3f 1fe5 a73f ca1c 6d3f 43e6 8c3f
00000010: 4070 f73e b987 b33f 1736 623f 289d bd3f
0.9330386 1.3116797 0.92622054 1.100777 0.48327827 1.4025794 0.88363785 1.4813585

running_var f4 [8]
00000000: 1355 1e40 3a66 7240 62dd cb3f db0a 7640
00000010: 5c35 3c3e 5685 6940 c257 f83f 219c 0e40
2.4739425 3.7874894 1.5926936 3.8444126 0.1837973 3.6487632 1.9401782 2.2282794

weight f4 [64, 512]
00000000: 69fc 183d b8b7 603d d2c2 a13c 9b47 723c
00000010: 6e7b 79bc e41c 7dbd 512c 20bd 0252 183c
00000020: 7936 f53a e0f7 99bd dd10 7d3e 7699 07bd
00000030: b56d 6a3c c184 0b3d 2e81 8c3c f42e f73c
00000040: 802f e5bc dbdc e7bc 2ade e7bb 68ef d63b
00000050: 0297 9cbd 2195 c93c cad0 4e3d 8d37 acbc
00000060: 504e a43c acc1 80bc eb4e 6f3d 3b6e 8fbd
00000070: 98a8 dd3d 8995 c2bd 4a2d bcbd 3d4c 093d
00000080: fefe 323d 3516 f53c e089 c33c 22c2 4ebd
00000090: 3004 b3bc ab69 6cbc 8585 863d 19b3 a5bc
000000a0: 075f 77bd 275b f13c 3aaf da3a 841f 1d3d
000000b0: 4f19 543d c934 65bd 92cf 793d 4708 d3bc
000000c0: e2a1 33bd c105 37bd 903e a0bd 70fc ddbc
000000d0: 6311 ad3c 6c01 513d dd8f 2cbd 764c acbc
000000e0: f448 813b 6703 0abd 798a 2ebd 7c36 653c
000000f0: ad99 6cbc 1dd6 56bd 6c27 17bd 69cd 2a3d
00000100: 2e82 383d 1dff 613d eaa8 0f3e 5213 f6bc
00000110: d495 fcbc 0148 173e 94c8 2c3d ad06 f0bc
00000120: b0e3 51bd e7f4 00be 4896 de3d 55bc 20bd
00000130: f74a 2cbd 8436 3d3d 810a b7bd 0487 94bd
00000140: 7df6 183c ee83 24bd aa20 003e e0d9 b2bd
00000150: 3273 b2bc adb7 59bb fc96 d0bc fd3e e03d
00000160: 3599 2e3c 943b ebbd ed6b 7c3d a6ec ecbc
00000170: 5272 b5bb 9f55 943d 02b8 583c cbe2 523b
00000180: 3266 49bc ec25 2f3d c3c5 2d3d cc08 ef3c
00000190: 921d 43bd b4ae 5ebd f22e 11bd 6fc0 9dbc
000001a0: 3c00 07bd 0c45 14bd 8429 e0bd e9af 0d3d
000001b0: 2667 fa3c 88cf ffbc 8f25 063c 007c 6e3c
000001c0: 1d5b bebc 81f1 733d 4265 8c3d cd6e 05bd
000001d0: b613 053d 36b2 edbc 21dc 693d b380 bbba
000001e0: 24f4 c93c 577a 1c3d fa99 5cbd eb4a 603d
000001f0: 64bc 383d f7ad 8bbc 513e 5bbd eb0f 593b
00000200: 824b 9bbc 4fa9 b6bb 817a 833d e7e4 813c
00000210: ff12 2fbd 5438 8f3c 14a4 c93d 4e03 1abd
00000220: f659 dc3c 7103 a43d bbed babd afcb b73d
00000230: f1b3 15bd 1534 733d aaba e1bc 37dc b2bd
00000240: 3b9d 0b3d ac66 0f3c 07fd b13d a000 60bd
00000250: 7cc5 0b3d 6708 c63d df84 a4bd 0000 85bd
00000260: 959d dd3c ca9f afbd 174c 023e ecc8 87bd
00000270: 422f 1d3d 0ebd 003c eabc 1cbd f34f ea3d
00000280: 56ef 7d3c af29 b9bd 7f59 be3d 3cbb 9cbd
00000290: 29cd 81bc 512c 7b3d 88ff 29bd f4e7 243c
000002a0: b9c3 153b 4a7b e43c fe12 19bd fbce 573c
000002b0: 282f afbc c257 863c 6415 a1bc a916 26bd
000002c0: 97a7 47bd 177c 9ebc fe89 b6bc 5051 9a3c
000002d0: 85f6 af3c 3d66 343c e633 cdbc 4279 16bd
000002e0: 74f4 4cbd 71bf 633d a124 73bb 360c b8bd
000002f0: 59c0 5f3d feb8 4cbd 3b6e b23c f56b 83bc
00000300: e619 913c 3e5e 3cbd 8547 a23b 3f90 2b3d
00000310: 5915 9ebd 7c85 bcbb 37aa 9a3d 267d 203c
00000320: 5b46 c1bc 316f cb3d 7226 813d 19d4 acbb
00000330: 0222 d2bd a4f9 803d 8f31 04bb cd00 a7bc
00000340: c554 aabc 7df7 4bbd 4161 fb3d 6f77 06be
00000350: 56e3 9cbc 7efc eb3c 2ae7 06be dcda febc
00000360: 790d 8f3c 56a9 b7bd f05b e83d 4694 b5bd
00000370: 3d80 723c 9340 5bbd ff46 00be e38a b13d
00000380: 2bba 133c 168e 7dbc f94a a83c d501 5dbd
00000390: c773 773c 88b6 66bd 7962 80bc e26a 43bc
000003a0: af09 1a3d b548 08bc 7244 57bd 31df e23d
000003b0: 1ec7 c3bb 617c 4e3d 1ade a43c 278d 87bb
000003c0: dfa5 a2bd 5187 0ebc 6532 33bd 30e0 b5bc
000003d0: c182 423d 20a4 fcbc 4d8e 853b 6213 503c
000003e0: 8c21 b23c 1ff6 353c 1ac6 363c 579f 7abd
000003f0: 2e41 d3bd 45dd a1bc c6d0 33bd f3f1 fcba
0.037350092 0.054862708 0.019746218 0.01478758 -0.015227182 -0.06179513 -0.039104763 0.009296896
0.0018708251 -0.075179815 0.24713464 -0.033105336 0.014308383 0.03406215 0.017151441 0.030173756
-0.027976751 -0.028303554 -0.0070760446 0.006559301 -0.0764599 0.024607243 0.050492086 -0.021022582
0.020056874 -0.01571735 0.05842487 -0.07003447 0.10823172 -0.09501178 -0.09188326 0.033519972
0.04370021 0.029917816 0.023869455 -0.05047811 -0.021852583 -0.01442949 0.065684356 -0.020227002
-0.06039336 0.02946241 0.0016684302 0.038360134 0.05178195 -0.055958543 0.06098897 -0.025760783
-0.043855555 -0.04468322 -0.07824433 -0.02709791 0.021126455 0.051026747 -0.042129386 -0.021032553
0.0039454643 -0.03369465 -0.042612527 0.013990041 -0.014440936 -0.052450288 -0.03690283 0.0416998
0.045046024 0.055174936 0.1402928 -0.03003851 -0.030833162 0.14773561 0.042183474 -0.029300058
-0.05124253 -0.12593423 0.108685076 -0.039242107 -0.04206368 0.04619457 -0.0893755 -0.07252315
0.009336111 -0.04016488 0.1251246 -0.087329626 -0.021783445 -0.0033221052 -0.02546262 0.10949514
0.010656645 -0.11485973 0.061626364 -0.028921437 -0.0055373097 0.072428934 0.013227465 0.0032178636
-0.012292432 0.042760774 0.04242493 0.029179 -0.047635622 -0.05436583 -0.03544516 -0.019256799
-0.032959208 -0.03619866 -0.109454185 0.03459159 0.030566763 -0.031226888 0.008187666 0.014555931
-0.023236806 0.059556488 0.06855251 -0.03257637 0.0324895 -0.029015642 0.057094697 -0.0014305323
0.024652548 0.03820261 -0.05385778 0.054758947 0.04510154 -0.017050726 -0.053526226 0.003312106
-0.018956903 -0.0055743824 0.0641985 0.01585622 -0.042742725 0.017482914 0.098457485 -0.037600808
0.026898365 0.08008469 -0.09127375 0.089743964 -0.03654856 0.05937584 -0.027554829 -0.08733409
0.034085494 0.008752506 0.08690839 -0.054688096 0.034123883 0.09669571 -0.08033156 -0.064941406
0.02705268 -0.08575399 0.12724338 -0.0663012 0.038375147 0.007857574 -0.0382661 0.1144103
0.015498957 -0.09041154 0.09294414 -0.076528996 -0.015844898 0.06132156 -0.04150346 0.010065068
0.0022852255 0.02789082 -0.037371628 0.013171907 -0.02138479 0.016399268 -0.01966352 -0.040548954
-0.04874381 -0.01934628 -0.022282597 0.018837601 0.021479854 0.011010704 -0.025049161 -0.036736734
-0.050037816 0.055602495 -0.003710069 -0.08986704 0.054626796 -0.04998111 0.021781078 -0.016042689
0.017712545 -0.045988314 0.0049523734 0.04188561 -0.077189155 -0.0057532173 0.07551997 0.009795463
-0.023593118 0.099333175 0.06306161 -0.0052743074 -0.10260393 0.06297615 -0.002017114 -0.020386124
-0.020792374 -0.04979657 0.12274409 -0.13131498 -0.019151371 0.028806921 -0.1317412 -0.03111022
0.017462479 -0.08967845 0.11345661 -0.088661715 0.014801082 -0.05352838 -0.12527083 0.08669069
0.009016554 -0.01547577 0.020543562 -0.053956825 0.015103287 -0.05632642 -0.015671955 -0.011927338
0.03760689 -0.008318116 -0.05255551 0.11077727 -0.0059746644 0.050411586 0.020125438 -0.0041366997
-0.07941794 -0.008699254 -0.04374923 -0.022201627 0.047487978 -0.03083998 0.0040758015 0.012699934
0.021744512 0.011106043 0.0111556295 -0.061187115 -0.103151664 -0.01975883 -0.043900274 -0.0019298181

bias f4 [64]
00000000: 5e32 e53c 0072 d43a fb9d 03bb 502e 24bc
00000010: 45d7 64bd 5966 12bd f9ad 383c 34e4 0b3d
00000020: 2f9b 443c 0a65 433d eb6a 943b 9aee 23bd
00000030: 40bf 4bbc 70f6 6abc ce7a 1ebc 85a7 58bc
00000040: 2fb7 043d f1c4 603b c0a0 193d a514 35bd
00000050: 731b 193d c58a 4d3c 3e14 06bd f07f 4bbb
00000060: f4c0 19bd 925a a8bc 992f 53bd 2bb2 45bd
00000070: 03a4 0ebd eeb8 73bc b4fc 203d 9bdf 693d
00000080: 2de4 80bc b9a5 203c 7408 053d 96ef 6a3c
00000090: 7cb4 ee3c 94a4 433d c0ce f539 1437 2c3b
000000a0: c840 c8bc fd67 a9bc 8755 4fbd 5d1f 91bc
000000b0: d4be 943b 009f ecbb 6e2c ad3b d403 c5bc
000000c0: c34d 0b3d 535d 32bd 3446 813c 447c c9ba
000000d0: a4bd 80bc afe7 e43c fda4 953b 9b9c 093d
000000e0: 22bc 24bc 5513 1ebd 0021 06bd 4f03 61bc
000000f0: 0669 6b3d c9b5 a7bc b664 f73c b2c5 923c
0.027978119 0.0016208291 -0.0020083177 -0.010020807 -0.05586936 -0.035742138 0.011271947 0.03415318
0.011999889 0.04770378 0.004529347 -0.04002247 -0.012435734 -0.014340982 -0.009672834 -0.0132235335
0.03240126 0.0034297074 0.03750682 -0.04420914 0.037379693 0.012545292 -0.03273415 -0.0031051598
-0.03753753 -0.020551 -0.051559065 -0.048265617 -0.034824383 -0.014875634 0.039303496 0.057098012
-0.015733803 0.009805136 0.032478765 0.014339348 0.029138796 0.047764376 0.00046884082 0.0026277946
-0.024444953 -0.020679468 -0.050618675 -0.01771515 0.00453935 -0.0072211027 0.0052848374 -0.024049677
0.034009706 -0.043546032 0.015780546 -0.0015372117 -0.015715428 0.027942507 0.0045667873 0.033596616
-0.01005462 -0.038592655 -0.032746315 -0.013733699 0.057473205 -0.020472424 0.03019939 0.017916534

weight f4 [512, 64]
00000000: d060 083b 3ff2 303e 1ca9 cc3d e735 23be
00000010: 083f 603d 6ac3 39be 72a4 423e d5a3 2e3e
00000020: 01c3 a5bd 3a9b 823c 81f6 d43d 8c46 ec3d
00000030: 95ad c63d 5c05 ee3d c400 44be 4066 cdbd
00000040: b564 a3bc 06b3 dd3d 9955 443e 0487 423d
00000050: 1742 35be a927 a2bd b462 1f3d 7541 f93d
00000060: 8bdb 6abd 2c2b 66be 247c 3c3e 8bf4 5bbe
00000070: 17d0 213e b711 0a3e 317a 2d3e 69c2 2a3e
00000080: d2fd b23d bb2b e8bc 815a 7b3e 3dc5 7abe
00000090: ddea c6bd bdcf 373d a0df bc3d 94cf 443e
000000a0: c4d1 15be d7f2 553e cc42 473e 06c4 eabd
000000b0: 5a82 3e3e 5277 63be 9c19 88be aa54 0cbe
000000c0: 0790 ac3d 3afe 4bbe c0ca 123c 6a09 463e
000000d0: 4356 453e 2628 b43d 1c4c a8bd fa52 1bbe
000000e0: 7f46 373e 31c5 053e c46a 093e fe51 cf3d
000000f0: 2391 723e ce4b 53bd c255 59be 7882 c3bc
00000100: 871e 023e 796c 033e a415 61bd 221c 40be
00000110: 67da 9dbd fddc 80be 9680 043e a7dc 0c3e
00000120: 4739 59bd 1022 97bb ad70 ab3c dfff 4d3e
00000130: f44a 5d3e 5b7f 02bc 9cf7 d73c 5569 cbbc
00000140: e281 e4bd b146 e13d beea d73c 7906 91bd
00000150: 23c4 e4bd 0ac4 05be 643d 9cbd 5daf 3e3d
00000160: 99ee 30be e18f d9bc 8d22 1a3d bea8 40be
00000170: 796a 883e 92cf 983c 3498 d5bc c97e 833d
00000180: da9d 143d cba6 1abe 91b4 073d ec16 40be
00000190: 9f38 38bc 58d1 02be ab65 dc3c 26b4 653e
000001a0: ec77 f0bd 4f03 333d e426 b53d 514e 9ebc
000001b0: 59e2 883d 886d 81be ef9c 3cbd f37a 4cbe
000001c0: ff4a 993d 12b4 43be ee4d 40bd 4dca 803d
000001d0: fee9 09be 5d78 0abd 7f0e b7bd 15ef f3bd
000001e0: 1136 8d3d f6f0 06be f5d9 ca3d 0f22 3f3e
000001f0: cbf3 383e 1622 4a3c 020b e4bb 8e4a 91bd
00000200: 61a1 b63d 36ff 363d 1ad2 48bd 7572 85bd
00000210: f3bc c33d 7805 053d 80a3 543c 9ebb 9b3c
00000220: 54bc 86be 7fac 313e f43c 143e 44b5 5b3d
00000230: 5953 0c3d 7264 24bc 5606 92bc 3b5a 21bd
00000240: 5549 80be 18ac 3c3d 318f 223e 01de 52bd
00000250: 1f0f 77bc 65df 18bd 4432 eebd 23a5 fd3d
00000260: 23a1 9fbd debe df3d b52a c43d 6e9e 78bc
00000270: 0140 453e 7948 a9bd bd8b 1dbe c8a6 813d
00000280: eb7c 7d3d b433 0c3c 2955 5f3d 741b 54bc
00000290: 171f c0bc 1aa7 abbc ec42 ecbc a1e4 2c3e
000002a0: c16e 8bbc bd4e 5fbd fec3 513c 8450 21bd
000002b0: 77a5 043e a24e 6dbd b7e7 363c a634 003d
000002c0: eb68 18bd af69 d6bd edb6 b4bd 19ef 28bd
000002d0: be1b b0bd da79 5b3d 72dc 5b3d 2041 92bd
000002e0: 05cb b9bb c371 91bc 48b5 c8bc 1f0e 243d
000002f0: 6715 293e 4720 273e d935 20bd fe48 99bd
00000300: 2e6f 3f3d cbd6 86bd 2472 c43d f9ab 3bbe
00000310: a870 2fbe f13f d73d 70dd 263c 382f c5bb
00000320: cb1e e03c d306 11bc 8f10 2ebb 09ec 443c
00000330: 9b6a 87bb f545 323e 198d 82bd bbbe a3bd
00000340: cfa6 a43d 3140 5c3e 1363 463c ebb5 3fbd
00000350: aed5 e63b 8b9f 4b3e 9580 87bc 4aa9 fe3c
00000360: 378b a73c 762f 193e 8a44 56bc 06b9 4dbd
00000370: bd29 643d 3cac a2bd be33 f8bd 818d 903d
00000380: d0fb 2d3d 5ed9 f8bd b50c a43d a4b0 873c
00000390: baea aabd e449 4f3c 11e5 38bd 9cd0 073d
000003a0: 1237 443d a47e 083e ed62 d7bc df05 8dbc
000003b0: 31c9 353e ab3e 9bbb 0327 83bd 79aa dabd
000003c0: d632 9e3c b9d5 3c3d 91a9 483c 48ac a03d
000003d0: c55c 26bd 0fa3 ac3b ea1d 3e3d 511c f93d
000003e0: 48d6 cd3d f6ca 843d 604f 8cbc da2a 8ebc
000003f0: 7f99 b2bd 069a 493b 642b 283d fdc0 533d
0.0020809658 0.1727991 0.099931926 -0.15938531 0.05474761 -0.18140951 0.19008043 0.17054684
-0.08093835 0.015943158 0.103985794 0.11536893 0.09701077 0.11622116 -0.19140917 -0.10029268
-0.019945482 0.10825162 0.19173278 0.047492042 -0.17700993 -0.07917721 0.03891249 0.12170688
-0.05733828 -0.22477406 0.18406731 -0.21480004 0.15802036 0.1348332 0.16941144 0.16675724
0.08739819 -0.028341165 0.24546243 -0.24489303 -0.09712765 0.04487585 0.092223406 0.1921981
-0.146308 0.20893417 0.19459075 -0.1146317 0.18604413 -0.22213486 -0.26582038 -0.13704172
0.084259085 -0.19921198 0.008959472 0.19339529 0.19271187 0.0879672 -0.08217642 -0.15168372
0.17897986 0.13063504 0.13419634 0.10123061 0.23688178 -0.051585965 -0.2122412 -0.023865923
0.12706958 0.12834348 -0.05495228 -0.18760732 -0.077076726 -0.251686 0.12939677 0.13756047
-0.05303314 -0.004612215 0.020927751 0.20117138 0.21610624 -0.007964934 0.026363187 -0.0248305
-0.11157586 0.109998114 0.026357051 -0.07081313 -0.111702226 -0.13063064 -0.07628897 0.04655396
-0.17278518 -0.026557865 0.037630606 -0.1881437 0.26643732 0.018653665 -0.026073553 0.06420667
0.03628335 -0.15102689 0.033131186 -0.18758744 -0.011243968 -0.12775171 0.026903948 0.22432002
-0.11741623 0.043704327 0.088453084 -0.019324454 0.066837974 -0.25278878 -0.0460481 -0.19968776
0.074850075 -0.1911166 -0.04694932 0.06288586 -0.13468167 -0.033806194 -0.08938312 -0.11910836
0.06895078 -0.13177857 0.09904853 0.18665336 0.1806175 0.012337228 -0.00695932 -0.07094298
0.08917499 0.044676982 -0.049028493 -0.065159716 0.095575236 0.03247592 0.012978435 0.019010361
-0.26315558 0.17350958 0.14476377 0.053639665 0.034259174 -0.010033714 -0.017825287 -0.03939269
-0.25055948 0.04606256 0.15874936 -0.05148125 -0.015079289 -0.03732242 -0.11630681 0.12385013
-0.07794406 0.10925077 0.09578458 -0.015174491 0.19262697 -0.08265776 -0.15385337 0.06330639
0.06188671 0.008557249 0.054524574 -0.012945998 -0.023452325 -0.020953704 -0.028840505 0.1688409
-0.017020585 -0.05451845 0.012803076 -0.039383426 0.12953745 -0.05793632 0.011163644 0.03130021
-0.037209433 -0.10469376 -0.08823953 -0.041243646 -0.085990414 0.053583004 0.05367703 -0.07141328
-0.005669954 -0.017754441 -0.024500504 0.04005253 0.1651207 0.16320907 -0.039113853 -0.07484625
0.04673689 -0.06583937 0.09592083 -0.18327321 -0.17132819 0.10510243 0.010184631 -0.006017592
0.027358433 -0.008851725 -0.0026560163 0.012019166 -0.0041325814 0.17409499 -0.063745685 -0.07995363
0.08039629 0.21508862 0.012108582 -0.04680435 0.0070445156 0.1988508 -0.016540805 0.031086583
0.020452125 0.14959511 -0.013077864 -0.05022528 0.055703867 -0.07943007 -0.12119244 0.0705824
0.042476475 -0.121508345 0.08010236 0.016563721 -0.08345552 0.012651894 -0.04514033 0.03315793
0.04790408 0.1332956 -0.026292289 -0.017214714 0.1775253 -0.004737695 -0.06403925 -0.10677046
0.01931135 0.04610226 0.012247459 0.0784536 -0.040615816 0.0052684615 0.046415247 0.12163604
0.100506365 0.06484024 -0.017127693 -0.017354418 -0.08720683 0.003076197 0.041057006 0.05169772

bias f4 [512]
00000000: 2835 cabd c229 ffbd 7511 d4bd 9e2e f5bd
00000010: 81f0 2cbd fe5d 3abd 9b56 633d d63b 473d
00000020: aff5 613d bb89 65bd fb1c 1c3e f270 b8bd
00000030: ad64 a53d 93c8 afbb 6d83 b43d 102c 0fbd
00000040: e77f 10be ed4f c4bd 6b30 8bbd 109f a33c
00000050: 9199 053d 3e4f b53d b16e 513d c181 94bc
00000060: 68a1 20bc 95c7 b1bd 0626 e63d 536b 6c3d
00000070: 61e8 293d fe43 25be 56cf 32bd 396c e23d
00000080: 6356 8bbd 5b91 05be d904 05bd 39d9 00be
00000090: 37ed 013e 422e d53d 6082 bb3b 227a 04be
000000a0: bf85 22be 4957 493d 964e 00be ec7b 1ebe
000000b0: 73b9 873b 2bbc 43be 5c89 e6bd e6b9 1cbe
000000c0: ebc7 0abe c805 7f3c 54ef 37bd 4794 2c3d
000000d0: 59cc 26bc 5b28 33be 05a1 c5bd ab42 e3bd
000000e0: 787c b1bd f656 853d 47ae e03c d406 0abe
000000f0: 4115 62be 215c c1bd cf99 583d f515 693c
00000100: 3d87 2e3d 399f b13d 116f 50bd 763e 81bd
00000110: a0d5 a5bd 39da dc3d 550d da3d dadd 93bd
00000120: ea74 75be 39d7 9cbd a67f 07be a0d3 17bb
00000130: 0356 8dbd 9cbb 7cbd a0bc 87be 8bb2 173d
00000140: 8b4c 03bd 8c47 25bc 251c 9ebd 6c29 d93c
00000150: 5636 65bd 2e3a 013e cf21 6f3d 94dd bbbd
00000160: 8c10 383d d535 a3bd c411 533d cf80 843d
00000170: 686d d9bc faa2 183e 6368 033b c4d0 77bd
00000180: 58db 20be dfae 4ebd f5e8 0c3e d1e9 84bc
00000190: 1008 2e3d 8619 a9bd 754e 0dbd 79d0 1bbe
000001a0: 5841 353d 0e63 73bd e000 df3d 8338 363d
000001b0: 1155 b0bd 1e4c acbc 8527 a6bc f8dd 14be
000001c0: ef51 0bbe df3c c6bc c4c2 9b3d a788 313e
000001d0: 15bd 883b 1d0a e03d bc1a 9539 cf92 febd
000001e0: d4bd b2bd cc89 babd 3125 cebd f495 ba3d
000001f0: 02bf bdbd 434d 08bd 8318 193d 3f5f cebd
00000200: 8f77 7e3d 2232 1dba e843 9e3d 3392 133e
00000210: 0a24 853d dabe 043e bc11 fb3d ab8c 263e
00000220: 6aa8 013e 3b60 343e 865f 12bd 06b3 fd3d
00000230: a3fa 2dbd a2c4 b2bd 1157 4b3d 061a b43d
00000240: 7985 2e3e 4789 513e e6e6 21bd 339c bb3c
00000250: 86e4 973d 93de c3bd 72aa 73bd 5ff9 123e
00000260: 16fd 053e 109d 3a3e efdd fcbc b85f 1cbd
00000270: 8c33 92bd 3172 303d ddb0 8bbc 6d65 57bd
00000280: ff3c 0e3e 0d31 0c3e 68f8 b63d 23dc 13be
00000290: e0e9 48bd 55cf 513d 12bb 24bd b2e0 203e
000002a0: 86da 5b3e cf8a 613e d798 a43d 807f f0bd
000002b0: 5b27 fdbd f414 c4bd 404c 59be aaef 60bd
000002c0: 74d5 a03d 045e 653d 66bc e03c 4bd6 d33c
000002d0: 52c9 10be 74d4 febc 12ef fc3d 6e37 22bc
000002e0: 4218 b63d b88c 393d 639f c4bb fc10 753d
000002f0: bbc5 a4ba cb40 a43d 2c45 ce3d 33fe 033e
00000300: b0e3 36be 0312 c6bc 0905 97bd 1dca 13be
00000310: 90ee 04be f603 07be c967 f6bc b8a2 8dbd
00000320: d381 6dbd 4d72 6dbe 0788 303e 8496 a53d
00000330: 5d29 463b 3842 2dbe d4d4 28be a6bb 3cbe
00000340: fd99 f0bd 0d48 31bd 50a8 0e3e a6b6 263d
00000350: 3a83 763d 6b86 903d 13f1 ebbd 5aa1 c0bd
00000360: cbc1 1bbe fc64 96bd c31c 333e 85b4 04bd
00000370: eb67 f93d 5428 7f3d 6077 743d 7a7a 1a3e
00000380: 3b25 efbd 226d 273b e8da 55bd 9e98 873d
00000390: 8bce 0f3e ccef b73d 569a a3bd 5717 03be
000003a0: 44cb 83bd b6b4 02be 7b45 173e 8801 f83d
000003b0: bbbc 313e 0972 323c 3c71 68bd f98d 0ebe
000003c0: 3956 973d 79c3 24bc 064b 633e 08c8 ee3d
000003d0: 4d13 83bc 4883 e53d 6b88 f0bd b935 42be
000003e0: 7b4c 413c 0f20 163d 1f05 9cbd 9fb1 ccbd
000003f0: 08bf d1bc ee54 e9bd e226 f3bc 9e0d 03be
-0.0987342 -0.124591365 -0.10354892 -0.11971782 -0.04222155 -0.045499794 0.055502515 0.04864105
0.055165943 -0.056039553 0.1524543 -0.090059176 0.08075843 -0.0053644865 0.0881413 -0.03495413
-0.14111291 -0.09585557 -0.06796344 0.019973308 0.032617155 0.08853005 0.051130954 -0.018128278
-0.009804107 -0.086806454 0.11237721 0.05771954 0.04148138 -0.16139218 -0.043654762 0.11055798
-0.06803586 -0.1304373 -0.032475326 -0.12582864 0.12688147 0.104092136 0.005722329 -0.12937215
-0.15871333 0.049155507 -0.12529978 -0.1547696 0.0041419803 -0.19114749 -0.11256668 -0.1530529
-0.13552825 0.015565343 -0.044905975 0.042133596 -0.010180556 -0.17495863 -0.09649853 -0.110967
-0.08666319 0.06510727 0.027426852 -0.13479167 -0.2207842 -0.094414 0.05288106 0.014226426
0.042609442 0.086729474 -0.05088717 -0.063107416 -0.08097386 0.1078381 0.10647074 -0.07220049
-0.2397038 -0.07658238 -0.13232288 -0.002316691 -0.06901171 -0.061702356 -0.26511097 0.037035506
-0.03205542 -0.010087859 -0.07720212 0.02650901 -0.055960022 0.1261985 0.05838185 -0.09173122
0.044937655 -0.07969252 0.051530614 0.06469881 -0.026541427 0.1490592 0.0020051233 -0.06050183
-0.15708673 -0.05045974 0.13760741 -0.016224774 0.042488158 -0.08256821 -0.03449865 -0.15216245
0.04425177 -0.059420638 0.10888839 0.044487488 -0.08609975 -0.02103239 -0.020282516 -0.145378
-0.13605474 -0.024198947 0.07605508 0.17337285 0.004172931 0.10939429 0.00028439413 -0.12430345
-0.08727613 -0.09108314 -0.100656874 0.091106325 -0.092649475 -0.033276808 0.03737689 -0.100767605
0.06212574 -0.0005996545 0.07727796 0.1441124 0.065010145 0.12963429 0.12259242 0.16264598
0.12661901 0.17614834 -0.03573563 0.12387662 -0.042475354 -0.08728911 0.04964358 0.08794026
0.17043103 0.20462523 -0.039526843 0.02290163 0.07416634 -0.09563937 -0.05948872 0.1435294
0.13084826 0.18223977 -0.030867545 -0.038177222 -0.07138738 0.04307765 -0.017052108 -0.05258696
0.13890456 0.13690586 0.089340985 -0.14439444 -0.049051166 0.051223118 -0.040217467 0.15710714
0.21470079 0.22025608 0.080369644 -0.11743069 -0.12361022 -0.09574309 -0.21220493 -0.05491606
0.07853213 0.055997863 0.027433585 0.025859019 -0.14139298 -0.031107165 0.123502865 -0.009900911
0.088913456 0.045300215 -0.0060004457 0.05983065 -0.0012571135 0.08020171 0.10071787 0.12889938
-0.17860293 -0.02417851 -0.07374007 -0.14432569 -0.1298163 -0.13185105 -0.030078785 -0.06915802
-0.05798514 -0.23188134 0.1723939 0.08085349 0.0030237057 -0.16919792 -0.16487437 -0.18430957
-0.11748121 -0.043281604 0.13931394 0.04070153 0.06018374 0.07056888 -0.11520591 -0.09405775
-0.15210645 -0.0734348 0.1749144 -0.03239872 0.12178024 0.06229432 0.059684157 0.15085784
-0.11677023 0.0025547226 -0.05221072 0.06620906 0.14043634 0.089812845 -0.079884216 -0.12801872
-0.06435254 -0.12764248 0.14772598 0.12109667 0.17357151 0.010891446 -0.056748614 -0.13921346
0.073894925 -0.01005637 0.22196588 0.11659247 -0.016000414 0.112066805 -0.1174477 -0.18965806
0.0117980195 0.036651667 -0.07618164 -0.09994816 -0.025603786 -0.11393152 -0.029681627 -0.12798163

weight f4 [8, 16, 3, 3]
00000000: 9137 aabc d594 813d 3984 ba3d 7008 183e
00000010: fa03 1cbe ace4 e3bc bcdc c43d bd16 1ebd
00000020: 39ea 9fbd b1ef 61bc 2588 13be aa83 11be
00000030: b242 c1bd 9321 2dbd ce6b 66bd c8b5 a23d
00000040: 796e 2e3e 2ece e33d 9d00 d13c 788d b4bd
00000050: cacb 59bd 6af2 9ebd 62d6 ab3d 0e5e c8bd
00000060: 13c0 e93d 0e7e 543e d8cb a13d ac43 66bd
00000070: 3ea0 ad3b 2147 763d 80c2 e03d 2637 62be
00000080: b5e4 973d c8c8 a83d 87c6 303e 5a0b 513e
00000090: 08ef 47bd 2ede 88bc d0c5 11b8 ef4e 973d
000000a0: 8e66 1a3e 3982 c73d a815 86bc 7ddf d5bd
000000b0: 2a6e 83bc 1da5 f8bd 5b1f ea3c 2d10 4b3d
000000c0: 588b 26be 8908 51bd 0449 9d3d 381a 33bc
000000d0: 22a0 cbbd ca66 b33d e978 fbbd c3ce 49bd
000000e0: 13bb c93c b641 7abd 2aa8 873e 1728 3a3d
000000f0: 5956 a43d 0426 233e a086 9a3c 9f31 b83c
00000100: 6ec8 8cbd 23b6 2c3c ae8f 123d ea5e 043d
00000110: 7aeb dc3d 1d90 c2bd 8df1 d83d 1d1a c63c
00000120: dbed 34bd b36a 5abd 787e 493d bc1f 5fbe
00000130: d274 d9bd 3c1c 1f3e fe0b 41be 387f 5bbb
00000140: 54df e33d c86b aabd 6800 083b 79aa 06bd
00000150: ba8a 20be 1f77 283d 9812 943c 4a51 acbc
00000160: f658 743d 1624 3d3d 5999 b13c b703 02be
00000170: d670 6d3c 7d6c 46bd 12cf 3dbe 8595 123e
00000180: b357 dabd 0075 d2bb 6c44 de3d 8a3a 98bd
00000190: 9c16 04be 52f5 2fbc f631 e9bd 8492 eabd
000001a0: d3fa 9c3d 68a3 3b3d 37cd 0c3e 9219 9c3d
000001b0: 3366 44bc edbd 2d3d 11e6 013d 3e2d b6bd
000001c0: 9722 1fbe 9237 e63d 201e 23be 48cb a53d
000001d0: af84 0a3e 5ba2 0ebc 0453 8abd 3774 4e3d
000001e0: 9f4c 863d f837 6a3e 71f3 9eba 9912 c63d
000001f0: 6137 5a3c 9b24 b7bd d466 f83d 04b0 f83d
00000200: da72 82bb 5596 803b 77bf cb3d 5207 933d
00000210: bf9a 3f3d f5ee 7fbd 5903 913d 2e51 8cbd
00000220: 581e a03c a1d8 d13c 3e3c f7bc 90ac b13d
00000230: 0e34 ed3b 54a4 683d c994 7b3d a500 5ebd
00000240: eae2 443d 30d6 ba3d 8f5e 96bc 456f 393d
00000250: d45e c8bd 9f64 b0bd 2720 2fbb aa4d 46be
00000260: e6df 633c 55fe 80bc a81c 383d 24a6 9bbc
00000270: 77a5 643d 8fb2 b93d d5ea 123d 0577 63bd
00000280: 6db9 223b a563 7a3c 117b 71bd e167 9dbd
00000290: ba48 9fbd 2834 4f3d 9039 b9bd c9f9 df3c
000002a0: 26f5 2b3d 1cfd 513d 16b4 253d bee6 db3b
000002b0: ab47 6d3d adb9 9b3d 72f8 343d b6c6 e4bd
000002c0: 05e3 1a3d aa13 85bd 83a1 8c3d 52da 2dbc
000002d0: 1652 203d 446d c23d 4bae 823d de12 653d
000002e0: 0279 173e f4dc 423c d53f d1bd 6317 fbbd
000002f0: 3bcf 9bbc d43f 48bd c3e8 273e 5772 753d
00000300: 23fb 01be 5f75 f7bc 6d9c 0c3e d2c1 0cbc
00000310: f0fe 803c 638b bf3c e4d7 abb9 d02a cf3d
00000320: c95c 723b af2a d93d 66ca 913c 04c9 813d
00000330: fc07 223d 6a4d c7bd 13e9 ba3c 490b 02bc
00000340: 6ef7 c83d a1e3 2bbd 4760 ff3a ba5f 953d
00000350: 5436 093e eb3a ecbc 3d27 6bbd 482d 9cbc
00000360: 18cb 52bd 1486 b33c 40ec b33d f04d 84bd
00000370: 5fbb cb39 4498 793d dba4 03bc 108a 32bd
00000380: d5ef 67bc 6791 843d 06a1 973d 0f1f 873d
00000390: fb58 7f3d d293 ab3d 3c7b 3dbc 1d98 edbd
000003a0: 7aed a6bc bdff a2bd e511 3cbd 5071 0cbd
000003b0: 3e39 d53d 7226 a8bd f0a4 0d3d 5420 063e
000003c0: f996 763d 8700 cebc 9e78 e2bc e099 5dbd
000003d0: 7a19 31bd 0fa5 113e e965 6e3d 648a 223e
000003e0: e09a 103e ae8a 9a3d 6fc0 a83c 9352 46bd
000003f0: 3f7a 69bd 61d1 183d f7a3 ad3d 9a56 49bd
-0.02077845 0.063272156 0.09107251 0.14846969 -0.15235892 -0.027819 0.09612414 -0.038595904
-0.07808346 -0.013790057 -0.14407404 -0.14210382 -0.09436549 -0.042268347 -0.056255154 0.07944828
0.1703433 0.1112331 0.025512988 -0.088160455 -0.053172864 -0.077610806 0.083905 -0.097835645
0.114135884 0.20751211 0.07900208 -0.05621688 0.0052986434 0.060126428 0.10974598 -0.2209135
0.07416669 0.08241421 0.17263232 0.20414487 -0.048811942 -0.016707506 -3.475492e-05 0.07388102
0.15078184 0.09741635 -0.016367748 -0.10443018 -0.016043741 -0.12140868 0.028579405 0.049575973
-0.16264093 -0.05103353 0.07679942 -0.010931544 -0.09942652 0.0875984 -0.12278921 -0.04926945
0.024625337 -0.061097823 0.26495486 0.04544839 0.08024282 0.1593247 0.018863022 0.022484599
-0.068741664 0.010541472 0.035781555 0.03231708 0.10787101 -0.09500144 0.10592947 0.024182374
-0.04417215 -0.053324413 0.049192876 -0.2178945 -0.10617985 0.15538114 -0.18852231 -0.0033492576
0.11126581 -0.08321339 0.0020752195 -0.03287742 -0.1567792 0.041129228 0.018075272 -0.021034855
0.059655152 0.046176992 0.021679567 -0.1269673 0.014492234 -0.048443306 -0.18536022 0.1431485
-0.106612585 -0.006422639 0.10852894 -0.074330404 -0.1289925 -0.010739641 -0.113864824 -0.11453727
0.076650284 0.045810133 0.13750158 0.07622065 -0.011987257 0.042417455 0.03171355 -0.08895348
-0.15540539 0.11241068 -0.1592946 0.080954134 0.13527177 -0.008705701 -0.06754115 0.0504038
0.06557583 0.22872913 -0.0012126995 0.09671516 0.013318867 -0.08942529 0.12128988 0.12142947
-0.0039809765 0.003924171 0.099486284 0.071791306 0.046778437 -0.062483747 0.07080717 -0.06851421
0.019545719 0.025615992 -0.030180093 0.08675492 0.0072388714 0.05679734 0.06142119 -0.054199833
0.048067965 0.09122884 -0.018355636 0.04527213 -0.09783712 -0.08612942 -0.0026722045 -0.19365564
0.013908362 -0.015746275 0.044949204 -0.01900012 0.055821862 0.090672605 0.035868485 -0.055533428
0.002482976 0.015282546 -0.058955256 -0.07685829 -0.07777543 0.05058685 -0.09044182 0.027340787
0.04198184 0.051266775 0.040454946 0.006710856 0.057929676 0.07603774 0.04418225 -0.111707136
0.03781416 -0.06497891 0.068667434 -0.010611134 0.039140783 0.09493497 0.063809 0.055926196
0.14792255 0.0118935 -0.10217253 -0.1226032 -0.019019714 -0.048888996 0.16397385 0.059923496
-0.12693457 -0.030207334 0.13731547 -0.008591132 0.015746564 0.023381894 -0.00032776513 0.10115588
0.0036981574 0.106038444 0.017796706 0.06337169 0.039558396 -0.097315624 0.022816217 -0.007937261
0.098128185 -0.04196513 0.0019483649 0.07293649 0.13399631 -0.028836688 -0.057410467 -0.01906456
-0.051463217 0.02191452 0.087852955 -0.06460178 0.0003885878 0.060936227 -0.00803491 -0.043588698
-0.0141563015 0.06473046 0.0740376 0.06597721 0.062340718 0.08377804 -0.011565026 -0.11601279
-0.02037691 -0.079589345 -0.045915503 -0.03428775 0.10411309 -0.08210458 0.034581125 0.1309827
0.060202572 -0.025146736 -0.027645405 -0.054101825 -0.043237187 0.14223121 0.058202658 0.15873104
0.1412158 0.07545982 0.020599572 -0.048418593 -0.05700135 0.037309054 0.084785394 -0.049154855

bias f4 [16]
00000000: 3db7 6e3c beee 02be 25c2 53bd 0e32 3f3e
00000010: 6814 c7bd 3336 243e 064d 013c bf5b 14be
00000020: 709f 1fbe 09fc 3a3e d0fc 1cbe 77f7 53bd
00000030: ed90 9fbd 1730 e6bd 7b2f c53d c6d7 debe
0.014570055 -0.12786385 -0.051698823 0.18671438 -0.09720689 0.160363 0.007891899 -0.14488123
-0.15588164 0.18260206 -0.15330815 -0.051749673 -0.07791314 -0.11239641 0.09628197 -0.43523997

weight f4 [16]
00000000: 4ef9 6f3f c917 683f 3766 873f 759e 573f
00000010: c943 873f 4804 613f 61e0 7c3f baf5 7d3f
00000020: 658c 8b3f 96d3 853f ae89 993f ecac 813f
00000030: b47f 833f 8481 783f 3427 753f 462b 793f
0.93739784 0.90661293 1.0578068 0.8422616 1.0567561 0.8789716 0.98779875 0.99203074
1.090222 1.0455196 1.1995142 1.0130897 1.0273347 0.97072625 0.95762944 0.97331655

bias f4 [16]
00000000: a641 05be 67c9 a7bd 2275 1cbd 469f 9a3d
00000010: 8d1f aebd 6ca1 07be 2289 6dbd ce35 39bd
00000020: 50fd d8bd 0d34 b5bd 4c46 c43d 0086 7bbd
00000030: 3aa1 e73c 62ca 2a3d e220 14be 8d17 a93c
-0.13013324 -0.08192711 -0.038197644 0.0754991 -0.085021116 -0.13245171 -0.05799211 -0.045217328
-0.105951905 -0.088478185 0.095837206 -0.06140709 0.028275121 0.041696914 -0.14465669 0.020641113

running_mean f4 [16]
00000000: a413 9b3e e115 473e 46a6 553e 2d18 d43e
00000010: 2c12 5f3e 5e20 c63e 44f0 933e 987a 4f3e
00000020: 5d57 423e a06f dd3e 08e3 5b3e 0e08 973e
00000030: b4a9 6e3e 07ac 703e 07a7 b13e 60d5 863d
0.30288422 0.1944194 0.2086421 0.41424695 0.21784276 0.3869657 0.28894246 0.2026161
0.18978639 0.43249226 0.21473324 0.29498333 0.23306924 0.23503123 0.34697744 0.06583667

running_var f4 [16]
00000000: 14ac 5d3e ea78 273e 45b7 303e e791 ea3e
00000010: 628e 403e abab ae3e 8c76 b43e dcbd 353e
00000020: bac3 1c3e 7800 ee3e cee0 4a3e 4116 993e
00000030: ab9c 3f3e 458a 183e 5479 ad3e 8466 2c3d
0.21647674 0.16354719 0.17257412 0.4581444 0.18804315 0.34115347 0.35246694 0.17748207
0.15309039 0.46484733 0.19812319 0.2989979 0.18712108 0.14896496 0.3388163 0.042089954

weight f4 [16, 1, 3, 3]
00000000: 63fc 69bd 5b54 2dbe ac4d d4bd a4b3 8fbe
00000010: 5f92 bbbe e8fd dfbd cc4a 74bd 0fe1 a3bc
00000020: c33e 773d f4ac d03d 6b42 8f3d 1b91 d33c
00000030: 7973 cf3d 3f28 5f3e 7a18 243e 2738 97be
00000040: c677 9ebe 2212 1bbd d557 8cbd 24f1 07bd
00000050: e487 563c 069b a3be cbe6 02bf 2933 6bbe
00000060: 8208 533d a1b3 bfbc c24e 1bbd c09a 1bbe
00000070: 6edb dd3d 2a6f 3dbe 4269 1e3e 709f ef3e
00000080: 8b68 ffbd 7c4c 7cbd eba6 033e 51d0 aebd
00000090: 3275 49be 6eb7 b9be 1d11 46be b26d 333e
000000a0: aadd 8a3e 8e04 9c3d c17b 3a3c 5eff 813d
000000b0: 7f30 16bb 6a0c 533e aa60 053e 3ba8 683e
000000c0: 625b 18bd d867 64be 6d9b 0e3e 21ae efbd
000000d0: f328 b3bd 09cb 093e 7457 ee3c d097 d2bd
000000e0: 343b 433e e149 783e a358 833e cd3f 993e
000000f0: 30cf 3a3e 5218 863e 86f3 7b3e 5c5e b23b
00000100: 5dbd 693e 1ca7 dc3b 5408 183e dae8 a43e
00000110: 5bc4 183d 43ff 993d 7864 263e 1ca5 cd3a
00000120: 05d0 1b3d 5a08 1f3e b34c 88be 32d6 9a3d
00000130: db33 943e d4d0 ccbe 442e 9d3d 3be1 2d3e
00000140: 67f7 08be f70b 953d 2f64 7f3e 205b 9a3e
00000150: a02a 24b7 13df 233c 008e e03e 6d0c 6e3e
00000160: 2450 8b3e ce38 8b3e cf9a 34be 6bc7 c6bd
00000170: ca6a 1a3c 3412 00bf 24ea e5be a809 843b
00000180: d488 2abe ae4b bebc ff67 dd3c 0a93 1f3e
00000190: 8cfb 733e b9cf e03d dfba 953e 6ce5 b83e
000001a0: 783b 4ebc 9ea7 6ebd a331 76be 1d23 5dbe
000001b0: b049 663d ab63 dcbe bd5a 053d aa04 7b3e
000001c0: ac3a bbbe ef1e 303e 94e3 353d 70aa 73be
000001d0: 157f bc3d bceb e2bc 85c4 1dbe f929 25be
000001e0: 0def eb3b daaf d7be ed77 7abe b0f9 f3bd
000001f0: 5071 89be f3ac 94bd a821 1c3e 59fb df3c
00000200: 5634 2bbe 6bcb 043e 08ac 093d 1f51 86be
00000210: 73dc ae3e d5a8 8d3e b0c4 1abc 6fd8 63bd
00000220: 52a5 013e 3c0b 433d 7371 6c3d 2d2e da3e
00000230: dc3f da3d 6c2e 5a3d b7cc 0f3e 1076 903c
-0.05712546 -0.1692671 -0.10366377 -0.28066742 -0.3663511 -0.10937101 -0.059641644 -0.020004777
0.06036259 0.10189238 0.0699509 0.025826028 0.101294465 0.21792696 0.16024962 -0.29535028
-0.30950755 -0.03785909 -0.0685269 -0.033188954 0.013093922 -0.3195421 -0.5113341 -0.22968735
0.051521786 -0.023401083 -0.037916906 -0.15195751 0.108328685 -0.18499437 0.1546984 0.4680133
-0.12471112 -0.06159638 0.12856643 -0.08535827 -0.19673613 -0.36272758 -0.19342466 0.17522314
0.2712224 0.07618056 0.011382044 0.063475356 -0.002291709 0.20610204 0.13025156 0.22720425
-0.037196524 -0.22305238 0.13926478 -0.11703134 -0.08748045 0.13456358 0.029094435 -0.10282862
0.19065553 0.24246933 0.25653562 0.2993149 0.18243098 0.2619043 0.24604616 0.0054433774
0.22826143 0.006733788 0.14846927 0.32208902 0.037296634 0.075193904 0.16249263 0.0015689465
0.03804018 0.1553053 -0.26621017 0.07560386 0.28945813 -0.40003073 0.0767484 0.1698045
-0.13375627 0.07277673 0.24940561 0.30147648 -9.785086e-06 0.0100019155 0.43858337 0.23246928
0.2720958 0.27191776 -0.1763718 -0.09706005 0.009424875 -0.50027776 -0.44905198 0.0040294714
-0.16653758 -0.023229446 0.027027128 0.15583435 0.23826426 0.1097712 0.29244134 0.36112535
-0.012587421 -0.05826532 -0.24042372 -0.21595426 0.056222618 -0.4304479 0.032557238 0.24513498
-0.365682 0.171993 0.04440649 -0.23795485 0.092039265 -0.027700298 -0.15406998 -0.16129293
0.007200128 -0.42126352 -0.2445981 -0.119128585 -0.26844263 -0.0725955 0.15247214 0.027341532
-0.16719183 0.12968223 0.033611327 -0.26233765 0.34152564 0.2766787 -0.009446308 -0.05562633
0.12660721 0.047618136 0.05772538 0.42613354 0.106567115 0.053266928 0.14042936 0.017634422
