Project_2/models/ex3c.pth (torch, 551519 bytes, 28 tensors)

weight f4 [16, 3, 3, 3]
000000 99 24 6f 3e 22 1d a6 3d 3d 43 02 be 83 83 fa 3d
       0.23353805 0.081110254 -0.12720962 0.12232115
000010 61 82 32 3c 6e d9 86 3d f6 4d c9 3d 24 de 32 be
       0.010895343 0.0658444 0.09829323 -0.17467552
000020 e6 38 99 bd c3 d9 27 3d 80 23 c0 bb 96 67 8d 3c
       -0.07481556 0.040979158 -0.005863607 0.017261308
000030 20 f6 83 bd 8a 25 e4 bd 1c 3e a9 3d 2a e7 bd 3d
       -0.06443429 -0.111399725 0.082637995 0.09272607
000040 2e 2e af bc 29 da 51 be 7c a8 73 bc b6 8d 6b bd
       -0.021384325 -0.20493378 -0.014871713 -0.057508193
000050 16 a4 b7 bd fb 71 87 3d 21 ab 96 bc 74 98 32 be
       -0.08966844 0.06613537 -0.018392147 -0.17440969
000060 7a ee 10 3e 39 d1 32 bb 58 fd d6 3a 3b 12 05 be
       0.14153472 -0.002728535 0.0016402407 -0.12995236
000070 cd 87 03 be 24 d4 a8 3c ea c4 0d 3e 3b 93 a7 bd
       -0.12844773 0.020608969 0.13844648 -0.08182379
000080 f7 6a 8c 3d 85 36 86 bd 28 c9 e5 bb 2a 90 de bd
       0.068563394 -0.065533675 -0.007012505 -0.10867341
000090 45 35 fd bd f9 ad 48 bc 59 46 38 be 9d 14 a9 bc
       -0.12363676 -0.01224851 -0.17995586 -0.020639712
0000a0 93 7e 93 3d 84 f2 02 be 44 4d dd 3d 7a 6d c3 bd
       0.072018765 -0.12787825 0.10805753 -0.09542365
0000b0 5a 96 94 3d 84 af f9 bc 28 5a 3d bd b2 9c 11 be
       0.0725524 -0.0304792 -0.046228558 -0.14219931
0000c0 6e f2 b6 bd c2 e5 29 bc 86 09 20 bd 74 84 15 bd
       -0.089329585 -0.01036972 -0.039071582 -0.03650327
0000d0 c8 9b 40 bd d8 c7 02 3d 06 cd ef bd bf 53 27 be
       -0.047023565 0.031928867 -0.11709027 -0.1634054
0000e0 2c 30 9c bd d4 24 e6 3d 05 ab 14 be 83 b7 31 be
       -0.076263756 0.11237493 -0.14518364 -0.1735516
0000f0 51 9b f0 bd f7 87 85 bd 68 ed ec 3b ff b0 80 bd
       -0.11748374 -0.06520074 0.0072304495 -0.06283759
000100 da 97 f6 bc 6d 13 e3 3d 00 be 2b be ab 5b 4b bd
       -0.030101705 0.110876895 -0.16771698 -0.04964797
000110 42 7f ad 3d 11 21 26 3e db f4 ca bd f5 a7 1a be
       0.08471538 0.16223551 -0.09909984 -0.15103133
000120 b6 2f fe bc 04 2f 09 be 63 8f 1f 3d b8 12 46 be
       -0.03102861 -0.13396841 0.038955104 -0.19343078
000130 1b 5b ca 3d 32 d6 e6 bd 4c 65 39 be 32 23 be 3a
       0.09880658 -0.11271323 -0.18105048 0.0014506339
000140 8c 66 e6 3d 51 6e 99 bd f1 e4 91 3d 2f 45 13 be
       0.11250028 -0.07491744 0.07123745 -0.1438186
000150 51 b6 3f be 35 f3 11 3e 50 57 01 be 8f d4 22 3c
       -0.18721892 0.14252932 -0.12630963 0.009938373
000160 16 66 2b 3b 55 36 3c bd a8 e9 14 3e 29 5a 6a 3d
       0.0026153377 -0.045950253 0.14542258 0.05721489
000170 5e 1f cb 3d cb 00 56 be b2 71 d7 bd c3 5f 93 3d
       0.09918092 -0.2089874 -0.105197325 0.071959995
000180 f0 48 88 3d bb 06 df bd ac da cf bb 4f c6 e9 bd
       0.06654537 -0.108899556 -0.0063432064 -0.114147775
000190 6d c1 50 bd 5f 70 e5 3d 72 d6 b0 bd 3b eb 29 bb
       -0.050965715 0.11203074 -0.08634652 -0.0025927562
0001a0 8a 93 73 3d 7b 92 b2 3c 6b e6 33 be d0 a7 2b be
       0.059466876 0.021798363 -0.17568366 -0.16763234
0001b0 3f 92 03 bd 7f 6f 29 be 50 78 2c 3e 7b c2 13 3e
       -0.032121893 -0.16546439 0.1684277 0.14429657
0001c0 c7 17 a6 bd 0a af be bd 39 03 8d bd ce 14 2f bd
       -0.08110004 -0.0931073 -0.0688538 -0.04274445
0001d0 7c 0f 75 bd 81 42 3c 3b ac 68 5d 3d ea 28 b2 bd
       -0.05982922 0.0028726163 0.0540549 -0.0869921
0001e0 4c 37 26 be dd 5b b5 bb 8b 03 f7 3c e8 a2 c5 3c
       -0.16232032 -0.0055346326 0.030153057 0.024125531
0001f0 12 4f 30 3d 09 e5 2c be 53 d5 79 3d 76 57 21 3e
       0.043044157 -0.16884245 0.060994457 0.1575602
000200 da c0 f3 bd 42 f9 1b bc a6 aa 9d bc 84 13 1e bd
       -0.11902018 -0.009519877 -0.01924641 -0.03859283
000210 b0 82 81 bd 6d c1 be bd ce da 80 bd 27 a8 e1 3d
       -0.06323755 -0.09314237 -0.06291734 0.11018401
000220 0d d2 6d bd 7c 86 1e 3e 97 6a 21 be 57 ae 65 3c
       -0.05806165 0.15480989 -0.15763317 0.014018617
000230 66 53 a6 bc ce d4 bb bd 3c 13 94 bd 5f f0 29 bd
       -0.02030344 -0.09171449 -0.07230231 -0.041489
000240 fb 3c 20 bd 8e d2 c6 bd 79 83 47 3d 43 42 96 bc
       -0.039120656 -0.09708129 0.048709366 -0.018342143
000250 ae d9 73 bd bd a8 ba 3c 37 eb 54 bd 61 0a f5 3c
       -0.059533767 0.022785539 -0.05198213 0.029912176
000260 cd 58 b1 bc 40 bc e7 bd 3c 5d d1 ba 8a 78 3f bc
       -0.021648789 -0.11315203 -0.001597322 -0.011686454
000270 53 d4 ec bc 06 90 a4 bd a5 fc c9 3c 69 68 83 3d
       -0.028909838 -0.08035283 0.024656603 0.06416399
000280 aa 33 c7 bd 76 6f 10 3e b4 ff 5e 3e 35 71 9f bd
       -0.09726651 0.14105019 0.2177723 -0.077852644
000290 80 42 46 3d bb d4 15 3e cf fd 4d bd e9 b7 52 bd
       0.048403263 0.14631931 -0.05029088 -0.05144492
0002a0 93 63 be bc dc 4b af bd d6 0e bd 3d 48 49 4a 3e
       -0.02324084 -0.08559391 0.09231345 0.19754517
0002b0 1c 65 7e 3e 22 8b 36 3e 76 2c c7 3c 75 30 0e 3d
       0.24843258 0.17826512 0.024313193 0.03471418
0002c0 91 cb 70 3d 33 46 3a bd 4c d8 28 3d dd a0 14 3e
       0.058787886 -0.045477103 0.0412219 0.1451449
0002d0 41 db 1f 3d f0 d3 87 3e 7a 40 20 3e 0f ad 11 3d
       0.039027456 0.26528883 0.15649596 0.035565432
0002e0 2b 20 1f bd c5 e1 ba bd 93 bf 6c 3e 1c 5a 2a 3e
       -0.038849037 -0.09125093 0.23119955 0.16635936
0002f0 40 57 5c bd e1 bc 2a bd 4c e9 8c 3c a5 c2 2c 3d
       -0.053794146 -0.041684035 0.017201088 0.042177815
000300 18 2d c2 3d 49 08 99 bd 97 81 65 3e d0 32 21 3b
       0.09481257 -0.074722834 0.22412716 0.0024596937
000310 2b a4 14 be c1 aa 1e bc 97 25 90 bd 9a a3 90 3d
       -0.1451575 -0.009684266 -0.0703842 0.070624545
000320 dd 65 1c 3d 93 fd e1 3d 2e f5 cc 3d 6f ae 9c 3b
       0.038183082 0.110346936 0.10007702 0.0047815363
000330 55 54 59 be 0a 03 e1 bd 8f 92 cc bd b1 00 2d 3e
       -0.21223576 -0.10986908 -0.09988891 0.16894795
000340 99 3b 86 3c 3a a6 0a 3e 99 c1 e8 3d 9f 4c e1 3c
       0.01638584 0.13539973 0.11365051 0.027502356
000350 85 db b7 3c 74 45 36 be 81 d0 cb bd c8 4e 14 be
       0.022443542 -0.17799932 -0.09951878 -0.14483178
000360 bd 3c ce bd f5 fc 91 3d 1b 8c 9f bd f6 ba 39 3e
       -0.10070179 0.07128326 -0.07790395 0.18137726
000370 5e a2 93 3d bf df 8d 3a e8 7c 18 bc d9 4f 11 3e
       0.072087035 0.0010824128 -0.009307124 0.14190616
000380 a6 0f 09 bc 09 53 bb 3d 26 cd 8f bd ab b5 4f bd
       -0.008365547 0.09146697 -0.07021551 -0.05071036
000390 8c c0 be bd 00 a0 0e 3d 12 f3 21 bd 7c 6b 61 3e
       -0.09314069 0.034820557 -0.03953845 0.22013658
0003a0 39 e9 4a 3e 44 0e b2 bd c2 33 4e 3d f8 05 b2 3d
       0.1981553 -0.08694127 0.05034233 0.08692545
0003b0 44 d9 8b be 56 7c 65 3d 7c 0f 58 3e b5 7e 8a 3a
       -0.27314198 0.05602678 0.21099657 0.0010566326
0003c0 e6 0a e0 3d ce e3 bc 3d 54 ef 11 be b4 80 77 be
       0.10939579 0.09223138 -0.14251453 -0.2417019
0003d0 c0 ab 3e bd 3f 48 09 bd 38 1d eb ba e8 dc 10 3e
       -0.046550512 -0.033516165 -0.0017937785 0.14146769
0003e0 1c 82 03 3e 0c 13 06 be 07 e8 d6 3d f6 c3 e7 bd
       0.12842602 -0.13093203 0.104934745 -0.113166735
0003f0 14 3e 0d be 04 5f 7e bd d1 d3 6a bd 6b b9 2c bd
       -0.13793212 -0.062102333 -0.05733091 -0.042169016

bias f4 [16]
000000 18 db ef 3d 78 66 58 3e eb af 34 bd cb fd 53 be
       0.11711711 0.21132839 -0.04411308 -0.20702283
000010 66 50 2f 3f bf 08 ec 3e c6 86 11 3e ec 05 b5 bc
       0.68482053 0.46100423 0.14211568 -0.02209755
000020 28 66 76 3e b1 e6 a1 3e 12 95 c8 3e be 51 00 be
       0.24062407 0.31621316 0.39176232 -0.12531182
000030 dd 7d 0b 3e 93 d7 c0 bd ec 16 54 3e f3 b1 cc 3e
       0.13622232 -0.094161175 0.20711869 0.39979514

weight f4 [16]
000000 9f 4a 58 3f e9 b1 48 3f f7 c9 79 3f bb 78 7d 3f
       0.8448886 0.7839647 0.975738 0.99012345
000010 2a 99 93 3f 29 6d 7f 3f 94 a8 80 3f b5 c4 52 3f
       1.1531117 0.9977594 1.0051446 0.823314
000020 b3 d2 75 3f 29 88 6f 3f 5c a4 64 3f fe e4 79 3f
       0.96024626 0.9356714 0.8931329 0.9761504
000030 f5 b7 87 3f 3e 8a 7a 3f ec 3d 7d 3f bd ac 68 3f
       1.0603014 0.9786719 0.9892261 0.9088858

bias f4 [16]
000000 91 b5 72 be d3 e4 ee bd a8 c1 40 3f af 40 28 bf
       -0.23702075 -0.116647385 0.75295496 -0.657237
000010 ee 07 ec bc 74 50 15 3e 6d ad 3f 3e d6 cd 8b bd
       -0.028812375 0.14581472 0.187185 -0.068263695
000020 6c 83 50 3e 6a f6 a0 3e 12 5f cd 3e 1a a4 56 bf
       0.20362633 0.31438 0.40111595 -0.8384415
000030 a8 c4 2a 3d 7a 35 68 3f dd da ac 3d 10 f1 24 3e
       0.041691452 0.907066 0.08440182 0.16107583

running_mean f4 [16]
000000 d3 12 00 3e 87 91 e5 3c 0c 3b 1c 31 05 37 b8 2f
       0.12507181 0.028023494 2.2734552e-09 3.35085e-10
000010 89 dd cd 3e a7 1c 89 3e f2 40 55 3f af 41 11 3d
       0.4020808 0.26779673 0.83302224 0.03546303
000020 7d f7 07 3f 64 67 6e 3e c8 27 2a 3e 88 23 32 1c
       0.5311201 0.23281628 0.16616738 5.8941183e-22
000030 51 e8 84 3f ce f5 b3 16 7b e1 42 3f 2e 04 fb 3e
       1.0383397 2.9074134e-25 0.76125306 0.49026626

running_var f4 [16]
000000 d1 e5 22 3c c5 74 44 3b 04 6f 6a 2d e3 d0 2e 2c
       0.009942488 0.0029976827 1.33260104e-11 2.4842843e-12
000010 7b f8 f2 3c 2e 95 87 3c 4e 4c 3b 3e a0 70 00 3c
       0.0296595 0.016550627 0.18290827 0.007839352
000020 f1 ed 4d 3d df 18 4e 3c 26 c8 91 3c 86 f8 86 17
       0.050275747 0.012579172 0.017795634 8.722283e-25
000030 21 a1 82 3e fd 9b ea 12 91 f1 e3 3d c3 09 03 3d
       0.25513557 1.480593e-27 0.111300595 0.03199173

weight f4 [8, 16, 3, 3]
000000 49 da 0f bd ce 1e e7 bc 4d f2 9d bc db 4c 8a bd
       -0.035120282 -0.028212931 -0.019280577 -0.0675294
000010 4e bd 8f bd 69 93 64 3d fd 3f 5d bd c4 de 82 bd
       -0.07018529 0.055804644 -0.054016102 -0.063901454
000020 dc 11 03 bd 28 80 db 3a 06 5d a7 3c 94 38 0a 3d
       -0.031999454 0.0016746568 0.0204301 0.033745363
000030 ab 99 9c bd de 52 60 bd df 12 9b bc 27 c9 39 bd
       -0.07646497 -0.05476653 -0.018929897 -0.04535785
000040 de 5b 46 bd f3 08 66 3c 9a af da 3d f3 e7 f8 3d
       -0.048427455 0.01404022 0.106780246 0.12153616
000050 d3 b7 60 bc f6 1f b8 3d 4d dc b7 b9 7b 73 a8 bd
       -0.013715702 0.08990471 -0.00035068617 -0.08225151
000060 63 6d 8b 3c cc c4 4c 3e f1 29 00 3e 0d b4 45 be
       0.017019933 0.19996947 0.12516 -0.19306965
000070 36 30 e5 bc 5a 03 73 bc 79 ed a0 bd 32 9d 86 be
       -0.02797709 -0.014832342 -0.07857794 -0.26291806
000080 63 6e a5 3c 32 16 65 bd 8c d2 36 be 6c 1a 3e be
       0.020194238 -0.05592937 -0.17853755 -0.18564767
000090 3b 39 63 3d 02 4d 41 3b a7 56 a5 bc 22 77 1a bd
       0.0554745 0.0029495363 -0.02018292 -0.03771127
0000a0 81 4a 84 bd 73 71 b5 bc d7 34 f2 bc 3c 80 42 bc
       -0.06459523 -0.022148823 -0.029566212 -0.011871394
0000b0 71 34 a5 bd fc 7d 25 3d 7f 08 1e bd 57 54 e7 3c
       -0.08066643 0.04040335 -0.03858232 0.028238459
0000c0 42 c7 ed 3d e1 f1 e5 bd 00 83 74 3d 35 88 dc 3d
       0.11610271 -0.11227775 0.059695244 0.10768167
0000d0 8a 70 39 be 80 87 07 bd b2 fc 91 3d 96 3b 23 3d
       -0.18109336 -0.033088207 0.07128276 0.039851747
0000e0 f5 0b 5e 3d 64 32 cd bc 52 54 83 3c a4 e6 cd 3d
       0.054210622 -0.025048442 0.016031418 0.10053757
0000f0 72 07 b2 3d fa a1 09 be c8 cf fb 3d 1d a7 10 bd
       0.08692826 -0.13440695 0.122954905 -0.03531562
000100 23 a8 f0 bb 48 1a 10 bb 31 be 8c bc 22 a2 80 bd
       -0.007344262 -0.002198832 -0.017180534 -0.062809244
000110 c2 a2 a5 3c 68 59 da 3c a0 15 de bc ef 2c 5b bc
       0.02021921 0.02665396 -0.027109921 -0.013377412
000120 f2 92 4b 3c d9 1a 61 bc e9 e0 27 bd 8c dc 97 bc
       0.012425171 -0.013739311 -0.040985975 -0.018537782
000130 8f eb 72 3d b7 9e b9 bc 57 3c 78 3d 5d 5e a8 3d
       0.059306677 -0.022658689 0.06060442 0.08221123
000140 9a 12 30 3c 8a 86 32 3d dc 8a 45 bc 2e 2d 97 bb
       0.010746622 0.043585338 -0.012057032 -0.00461354
000150 95 e4 15 3c 58 c5 9e 3c 14 b8 aa bd 81 14 d6 3d
       0.0091487365 0.01938121 -0.08335891 0.104531296
000160 d4 e9 d5 3c 94 94 06 bd 2e 7e 07 bb 47 1a 31 3d
       0.026112475 -0.03285654 -0.0020674574 0.04323795
000170 68 0d 07 bd 1d 62 29 3d 25 76 8f 3d 81 56 9e bc
       -0.03297177 0.041353334 0.07004956 -0.019328358
000180 36 87 cd ba 71 f1 14 3b 34 54 bb ba 1d a5 75 be
       -0.0015680555 0.0022726918 -0.0014292062 -0.23988767
000190 82 55 58 bd 17 af 58 be bb c0 73 be bb d0 c5 bc
       -0.05281592 -0.21160541 -0.2380399 -0.024147382
0001a0 12 ea 1c bd 5f 21 d7 bd 05 fe df bd 56 ca 89 bd
       -0.038309164 -0.10504412 -0.10937122 -0.06728046
0001b0 20 ba 54 bb 61 95 54 bd 9f 10 11 bd 06 37 f0 bc
       -0.0032459572 -0.05190027 -0.03541624 -0.029323112
0001c0 a5 20 a6 bd ad 10 89 3c a3 2a af bd 7f 75 63 bd
       -0.08111695 0.016731584 -0.08553054 -0.055531975
0001d0 a1 ad d8 bc f6 8f c9 3d dd ef 7a 3d bc c9 2b 3d
       -0.02644998 0.098419115 0.061263908 0.041940436
0001e0 de 52 0b 3e b0 4d c7 bb c6 44 90 bc 92 ff 6a 3e
       0.1360583 -0.006082259 -0.017610919 0.22949055
0001f0 55 5e 8a 3e 0a 3e 05 3e e3 6c 12 bd 84 aa fc bc
       0.27025095 0.13011947 -0.035748374 -0.030843027
000200 99 b0 48 3c 0d a3 df bc 39 eb 0b 3d a4 fb 81 bd
       0.012249135 -0.027299428 0.034159873 -0.06346825
000210 08 cf 59 3d 36 aa b6 39 d1 c9 1a 3d b9 46 58 3d
       0.053175956 0.00034840562 0.037790123 0.05280182
000220 7c e8 47 3d a8 a9 82 3d 95 8a 05 3c 6a 44 49 3d
       0.0488057 0.063800156 0.008150716 0.04913751
000230 0c c6 ee 3c 65 6f a2 3d bb 89 fd 3d 8f 9e ad 3d
       0.02914717 0.07931403 0.123797856 0.08477508
000240 aa 8c c4 3c 5b 4e 53 bd 4c 39 9e 3b 4e 50 8c ba
       0.023992855 -0.051588397 0.0048286077 -0.0010705085
000250 9c 38 0c bd 90 cd 73 3c 6e a6 80 3c fd 7d 9c 3c
       -0.034233674 0.014880553 0.01570436 0.019103045
000260 92 81 30 3b 38 22 25 3c e1 09 a0 bd 00 4c 91 bb
       0.0026932699 0.010078959 -0.07814384 -0.0044341087
000270 8f 24 99 bb 2f 7b fb bd a7 dd 09 bd 3a 52 66 3c
       -0.0046735476 -0.12279355 -0.03365865 0.01405769
000280 83 65 13 bc 3c e9 c2 bb c5 c7 04 3b fa 78 05 be
       -0.00899637 -0.005948214 0.0020260673 -0.1303443
000290 21 4f d1 bd 54 f3 b1 3d 86 ab 1d bd 41 1d 0d bc
       -0.10220171 0.08688989 -0.038493656 -0.008612932
0002a0 bd e2 38 3d cd 27 ad 3d b8 7e c4 3d ce 0f ef bb
       0.04513811 0.08454857 0.09594482 -0.0072955852
0002b0 58 48 b8 3d 01 35 c0 bc 95 09 e9 3c e2 94 e8 ba
       0.089981735 -0.023462774 0.028446952 -0.0017744566
0002c0 53 30 91 3c cc ad ae be 4c bb bf be 5d 4e 4f be
       0.017723238 -0.34116971 -0.37447584 -0.20244737
0002d0 fe 34 3d bc e6 c3 7a be 31 64 8f bc a3 8a 66 bc
       -0.011548279 -0.24488792 -0.01750383 -0.0140711395
0002e0 d4 48 6a bd 86 c1 6b 3d 00 20 44 3d 15 48 93 3c
       -0.05719836 0.057557605 0.04788208 0.017978707
0002f0 e8 5f 97 3d 6e 62 a7 bb a1 26 20 bd bc dc bf bd
       0.073913395 -0.0051081693 -0.03909934 -0.093682736
000300 cb bc 68 3b df 59 0e bd 12 b4 05 be db 19 17 3c
       0.003551292 -0.034753677 -0.13056973 0.009222473
000310 d9 fd f0 3c 31 f4 a2 3a 4e 70 ac bc 60 50 fb bc
       0.029417919 0.0012432394 -0.021049645 -0.030677974
000320 50 13 3e bd 3e 6e fb 3d 79 9f b0 3d cd aa 04 3d
       -0.046405137 0.122768864 0.08624167 0.03238945
000330 af 10 84 bc 30 9b 5b 3d ba 66 eb 3b 34 22 00 bd
       -0.016121237 0.053614795 0.007183877 -0.03128262
000340 4d f9 10 bd 6f f0 82 bd 5a 68 86 bb cc b2 b3 b9
       -0.035394 -0.06393515 -0.004101795 -0.00034274755
000350 56 5d 1b 3b 2c 3f b7 bc ba 44 ca bc 9b 9b 26 bd
       0.0023706756 -0.02236899 -0.024690975 -0.04067574
000360 9a 69 3f bd 3b 8f 09 ba e6 6a d5 3b 10 f7 78 bc
       -0.04673157 -0.0005247478 0.0065129874 -0.015195623
000370 37 cc 3a 3d 85 12 81 3d 9c 1b ce bb 2f 7a 97 bc
       0.04560491 0.063023604 -0.0062899124 -0.018490879
000380 62 0f b0 3c 10 8a 14 3b e9 3d 73 bc ab f6 69 bc
       0.02149171 0.00226653 -0.0148463035 -0.014280002
000390 0d 0f 82 3d d3 e7 87 3d 34 ef a3 3c ae 02 86 3c
       0.06350527 0.06636014 0.020011522 0.0163587
0003a0 80 06 23 3b d7 a5 b6 bc ff 90 54 3d 28 ba 67 3d
       0.00248757 -0.022295875 0.05189609 0.056574017
0003b0 e0 f7 37 3a 73 10 08 3d c9 2a eb 3d a1 7f a1 bb
       0.0007017832 0.033218812 0.1148277 -0.0049285446
0003c0 52 00 94 3c e2 54 31 3d 19 62 d9 3b 13 e6 79 bc
       0.018066559 0.04329384 0.0066340086 -0.015252608
0003d0 c9 45 bc 3d e0 57 91 bd fc bd ec bd 6f 8c da bc
       0.09192998 -0.07096839 -0.11559674 -0.026678292
0003e0 d5 57 de bc 41 69 ca be 19 34 c7 bc bd bb 24 be
       -0.027141491 -0.39533427 -0.024316834 -0.16087241
0003f0 4f df 87 bc e6 61 a0 bd 40 54 ee bd 9b f3 8b bc
       -0.016585974 -0.07831173 -0.11637163 -0.017083934

bias f4 [8]
000000 d6 bc 57 3e 8d 0c 24 3e 09 7c 64 3e 64 a9 11 3f
       0.21068129 0.16020413 0.2231294 0.56899095
000010 31 ae 1f 3e 31 45 c3 3d be 5b 97 3e d8 43 51 3e
       0.15593792 0.095346816 0.2956218 0.20436037

weight f4 [8]
000000 eb f5 59 3f 5a b8 70 3f f0 a2 4e 3f 20 4e 80 3f
       0.85140866 0.940313 0.8071737 1.0023842
000010 25 5a 80 3f 41 43 2f 3f 6c 54 6f 3f 48 35 72 3f
       1.002751 0.68461996 0.9348819 0.9461255

bias f4 [8]
000000 67 52 29 be 90 01 59 be 57 6b 5c be 14 29 65 be
       -0.1653534 -0.21192002 -0.21525322 -0.22378951
000010 11 02 19 bf 95 ae de be 0c df 75 be 71 56 6e be
       -0.5976878 -0.4349257 -0.24010867 -0.23275162

running_mean f4 [8]
000000 9e 8f 47 40 9e eb c8 3f 0f 79 14 40 2d ed d1 3f
       3.1181407 1.5696905 2.3198888 1.6400505
000010 f8 58 fd 3f 73 30 a2 3f 8e 47 d6 3f 7c 3a 11 40
       1.9792776 1.2671036 1.6740587 2.2691946

running_var f4 [8]
000000 0d 97 6c 3f d1 18 e0 3e 3e 32 45 3f 7f dd 23 3f
       0.92417985 0.43768933 0.7702979 0.6400985
000010 b4 81 43 3f b1 88 12 3f 66 fc ec 3e 36 12 6d 3f
       0.76369786 0.57239825 0.46286315 0.9260591

weight f4 [128, 512]
000000 40 d5 0d 3d 81 71 dd 3c f6 fa fb 3b eb 9b 1c 3d
       0.0346272 0.027031662 0.007689829 0.038234632
000010 60 f4 c3 3c b9 ea cf 3c b3 2f 1c 3d 04 79 30 bd
       0.023920238 0.02538048 0.038131427 -0.04308416
000020 7c 32 35 3d 16 54 0b 3c 05 86 b1 bc 27 8e 61 bd
       0.0442376 0.008503934 -0.02167035 -0.055067208
000030 29 f1 34 3c 19 0c fe 3c 20 5e 1c bd 83 86 04 bd
       0.011043825 0.031011628 -0.038175702 -0.032354843
000040 cd 3f fb 3b fa d4 2b 3b 9a 16 6f 3c bc bc a8 bd
       0.0076675178 0.0026219473 0.014592791 -0.08239123
000050 31 0e b6 3d ef 33 ce bb 65 8c b4 bd fc b4 4c 3d
       0.088894255 -0.006292812 -0.08815841 0.049977288
000060 89 e5 8d 3d 0c 42 b2 3b b6 41 39 3d bd 6e 95 bc
       0.06928546 0.0054400023 0.045228682 -0.01824128
000070 01 11 8e 3d 4a 1c 37 bc 01 93 12 bd bc 0f 75 3d
       0.06936837 -0.011176178 -0.035784725 0.05982946
000080 33 2f 9b 3d 6e 19 90 bc d5 a2 7c bd 3d 99 3e 3d
       0.07577362 -0.01759025 -0.061678726 0.04653286
000090 b3 4c c5 3c 8a 1f 55 3b 37 27 74 bc 92 9a 8f 3d
       0.024084425 0.003252002 -0.014901928 0.07011904
0000a0 e9 cf a6 3c dc 40 cd bc 34 cd 2b bd 42 27 ab 3b
       0.020362811 -0.025055341 -0.041943744 0.0052231858
0000b0 86 b3 8d bd b4 ff 3c 3d c3 86 78 3d b4 66 54 3c
       -0.06919007 0.046142295 0.060675394 0.012963939
0000c0 ee 2d 6b bc cc 51 4b 3b 63 2f 21 3d d7 15 2c bc
       -0.014354212 0.0031024097 0.039351832 -0.010503254
0000d0 f1 8e fc 3c bd 90 08 bd 58 92 40 bb ce d7 8f 3d
       0.030829879 -0.03334116 -0.0029384103 0.07023583
0000e0 f6 d1 77 bd e3 9a f3 3d bf 52 93 bd 5c 20 4d 3d
       -0.06050297 0.11894777 -0.07193517 0.05007969
0000f0 29 3c ff 3c da 07 e5 bd 04 62 f2 bd a4 3f 98 3d
       0.031156616 -0.11183138 -0.11835101 0.074340135
000100 24 19 c0 bd c8 d0 3c ba d4 d1 8c 3d c2 33 8d bc
       -0.09379795 -0.00072027417 0.06875959 -0.017236594
000110 ec 6b 1b 3e 18 64 22 bd 12 ce ad bd a3 80 35 3b
       0.15177888 -0.039646238 -0.084865704 0.0027695082
000120 50 8d 5c bd 5d 3c 46 3d d6 78 40 3c 0f 3f 7e 3d
       -0.053845704 0.04839741 0.0117475595 0.062071856
000130 fd 95 70 bc 91 5a 1e bc a9 5c 44 3d 2c 0b 50 bd
       -0.0146841975 -0.009665147 0.04793993 -0.050791904
000140 b3 aa cf 3b 70 95 05 bd 05 30 b5 3d 42 c5 68 bd
       0.0063374876 -0.032613218 0.088470496 -0.056828745
000150 ef ff 28 3d 2c 63 5d 3c ac 1e 9b bd 47 39 8a 3d
       0.041259702 0.013512414 -0.075742096 0.06749206
000160 df 93 c2 3c 13 7c 24 bc 28 7e 2d bd 13 98 10 bd
       0.023752151 -0.010039347 -0.04235664 -0.03530128
000170 e4 38 e3 3d 02 db 1a bd af b2 7d bd a0 51 f2 3c
       0.110948354 -0.03780652 -0.061937984 0.029579937
000180 23 2c 20 bc a5 e1 80 3c 87 1e 1d 3d e7 01 85 bd
       -0.009776148 0.015732596 0.03835919 -0.064945035
000190 23 81 4e bc 54 ad 8f 3b 4e 48 4e bd e7 74 6c 3d
       -0.012604031 0.004384676 -0.050361924 0.057728674
0001a0 42 80 bd bc 27 1a 4e 3d f6 b7 48 bd 81 56 91 3d
       -0.023132447 0.05031791 -0.049003564 0.070965774
0001b0 55 a5 35 bd 98 ef 1c 3c 89 60 f9 bb f9 4a ab 3a
       -0.044347126 0.009578608 -0.007610385 0.0013068608
0001c0 f0 7d 87 3c 49 91 e6 bc 35 d6 7c bd c4 5a 5e 3c
       0.016539544 -0.02814545 -0.06172772 0.013571445
0001d0 9e 50 f9 3c a6 20 2a bd ec 2d 38 ba 17 15 96 bc
       0.03043395 -0.041535042 -0.0007025886 -0.018320603
0001e0 f2 16 14 bd 4e fd 2b bc 24 c1 a4 3d 54 5a c2 bd
       -0.036154695 -0.010497404 0.08044651 -0.09489885
0001f0 c1 44 30 bd c4 5c 90 3d 83 34 14 bd d0 19 90 3c
       -0.04303432 0.07048944 -0.03618289 0.017590433
000200 32 f7 74 bb 36 20 46 bc b1 46 88 3d 6b ad d7 bc
       -0.0037378785 -0.012092641 0.06654108 -0.02632781
000210 07 b5 f7 3c 1d d8 c4 3c 22 1d 0f bd ea 2c a2 bc
       0.030237688 0.024028832 -0.034939893 -0.019796807
000220 3a d4 a0 3c d2 6a 0e 3d 23 ef a0 bd bc c9 47 bc
       0.019632448 0.03476984 -0.07858112 -0.012194093
000230 57 ca 68 3d 3d e3 28 3d 7e bd 88 3c 5c a7 ab 3c
       0.05683359 0.041232336 0.01669192 0.020953827
000240 2c da cc 3a cd d1 33 bc 04 af 2b 3c d2 1c 42 bd
       0.0015628985 -0.010975313 0.010478739 -0.047390766
000250 a7 ff bb 3c 8a 6f d4 3c e5 7b bb bc 45 0a 10 3d
       0.022949053 0.025932092 -0.022886226 0.035166044
000260 77 02 14 3c 37 2a 90 bc a6 ea 9f bd e0 03 fa bd
       0.009033791 -0.017598255 -0.078084275 -0.1220777
000270 06 d2 95 3d c1 d7 4d 3d 0b f6 82 3d cd d1 ca bb
       0.073154494 0.050254587 0.06394585 -0.006189561
000280 bf 24 8f 3d 4d 58 88 bd 8f 31 84 bc 2a 48 cc bd
       0.06989431 -0.06657467 -0.016136913 -0.09974702
000290 d5 3a ee bc c4 d0 8f bd 6e 1e 8f bc 9f c2 37 3d
       -0.029080788 -0.07022241 -0.017470565 0.04486334
0002a0 3c cd 99 bc bc a9 51 bd 34 c0 6d 3d cf 3c bc 3c
       -0.018774621 -0.051187262 0.058044627 0.022978215
0002b0 92 71 76 3d 57 cb e7 bc 3c 77 46 3d 74 a4 46 3d
       0.060166903 -0.028295202 0.048453555 0.04849668
0002c0 9d d9 bb 3c 85 d1 3d 3d ab 20 fa 3c 10 46 da bb
       0.022930915 0.04634239 0.030533155 -0.006661184
0002d0 ef 3a 21 3d e4 00 85 bc 7b ea 0c bd 00 62 86 3d
       0.039362844 -0.016235776 -0.034403306 0.06561661
0002e0 e6 35 b5 bd bb 67 3b 3d f0 83 e5 3c af 5e 76 3d
       -0.08848171 0.045753222 0.028017014 0.06014889
0002f0 cf 56 61 bd d6 53 5e bd 5e 95 04 bd f2 dc 89 3d
       -0.055014428 -0.05427917 -0.03236901 0.06731595
000300 1d 3f c8 3d 3a 1f 36 3c 41 70 88 bd 94 33 83 3d
       0.09777663 0.011115843 -0.06662036 0.06406322
000310 44 46 2c bd 4d 5a 8b bc 87 b5 c9 3d 45 12 1f bd
       -0.042059198 -0.017010832 0.09849077 -0.038835783
000320 62 82 56 b9 25 8c e1 bc eb b3 e0 3c ad 63 9c bd
       -0.00020457202 -0.027532646 0.027429542 -0.07636199
000330 66 4d d0 bb 06 4e 86 bc 72 3e 31 bd 14 19 12 3c
       -0.006356883 -0.016394626 -0.043272443 0.008917112
000340 ae c2 94 3d 2b b1 b4 3a 88 48 92 bd 21 55 e4 3c
       0.07263695 0.001378571 -0.071427405 0.027872624
000350 66 0a 1b bd c2 e6 93 ba 27 ca ae 3d 9d 5f f7 bd
       -0.037851714 -0.0011283981 0.08534651 -0.12078784
000360 64 5b 78 bc 03 b1 c0 3c 17 01 8c 3d 75 70 8c 3d
       -0.015158508 0.023521906 0.06836145 0.06857387
000370 89 e9 e1 bd ed 8c 32 3d 1a 06 50 3d 79 d9 5e bc
       -0.110308714 0.04359143 0.05078707 -0.013601654
000380 88 0d 6d bd 3d 81 4e 3d 08 6a 92 bd 29 20 28 3d
       -0.057874233 0.05041622 -0.0714913 0.041046295
000390 c2 08 8b bd f0 b1 ba 3c 38 7d 3d 3d 6a 9d 2d bd
       -0.0678878 0.022789925 0.046261996 -0.04238645
0003a0 33 db 2b 3d 53 31 dc 3c df 33 9d 3d 97 93 04 bd
       0.04195709 0.026878988 0.07675909 -0.032367315
0003b0 c1 33 15 bc 92 d1 61 3c 28 35 7c bc 1c 88 c2 3c
       -0.009106577 0.013782876 -0.015393533 0.023746543
0003c0 44 f8 1b bc 5f a6 02 3d ff e1 86 3d 03 26 ab 3d
       -0.00951964 0.031896945 0.06586074 0.083568595
0003d0 4c 8a 14 3d a3 e1 c9 3b 94 e9 34 bc ef de 24 3d
       0.036264703 0.006160931 -0.0110420175 0.04025167
0003e0 ab e1 72 3d 33 66 54 bd 7d 0c be 3c 1e 0d 32 3c
       0.059297245 -0.051855277 0.023199314 0.010867385
0003f0 58 ed fd bc 43 36 cb 3c 42 8b 4d 3d ed 34 2e bd
       -0.030996963 0.024806147 0.050181635 -0.042530943

bias f4 [128]
000000 e2 c4 03 3e e1 f0 cc 3a 3d a1 c9 bd 11 52 09 bd
       0.12868074 0.0015635752 -0.09845207 -0.03352553
000010 6e 42 01 be df e5 76 3d ce 33 64 be 9a 77 c5 ba
       -0.12622997 0.060277816 -0.22285387 -0.0015065551
000020 c0 e1 ca 3d 49 b8 83 be da f0 cc bb 9f 70 88 3c
       0.0990634 -0.25726536 -0.0062542977 0.016655264
000030 3b bd 3a 3e 3e 8d e7 bc 11 d7 7b 3d a3 b3 cf 3d
       0.18236248 -0.028265592 0.0614844 0.10141685
000040 c9 30 d8 bc 0d b5 90 bc 00 e7 59 3e 00 cb 28 3c
       -0.02639045 -0.017664457 0.21279526 0.010302305
000050 95 5d e4 bd 5e 2d af 3c 13 9c 2f 3b 3a 9a d6 3d
       -0.11150662 0.021383937 0.0026795908 0.10478635
000060 6c 8a c6 bb ca 13 e5 bc 1b 48 3c 3d 80 c6 c4 bd
       -0.0060589816 -0.027963538 0.045967203 -0.09608173
000070 2e 55 c8 bb f5 f5 55 3d 0a 84 b2 3b 37 20 54 3d
       -0.00611367 0.052236516 0.005447869 0.051788535
000080 b5 b3 40 bc 5b 73 e5 bc 38 91 f6 bd 06 76 11 3d
       -0.0117615955 -0.028009107 -0.12039417 0.035512947
000090 9e 5f 42 3d 39 c1 0e 3e 29 97 41 be 43 72 e5 bd
       0.04745447 0.13940896 -0.1890532 -0.11203434
0000a0 18 b2 98 bb 84 fa f8 bd 4e 9f ab bd 82 f9 36 bd
       -0.0046599023 -0.12157157 -0.08379994 -0.044671543
0000b0 12 e2 87 3e e0 ee c7 bc ba 33 b2 bc 80 be 29 be
       0.26539665 -0.024405897 -0.02175318 -0.16576576
0000c0 18 1a b2 3c 15 ef 8a bd 6c 7a c0 3d 05 c9 32 be
       0.021740958 -0.067838825 0.0939835 -0.17459495
0000d0 1d 5d 3b 3d 0a 00 48 be 63 ce 6c 3d 61 24 23 bd
       0.045743097 -0.19531265 0.057814013 -0.039829616
0000e0 6c eb 43 3e 34 f4 bb bd 6c a2 e2 bd 16 ae 2a 3e
       0.19132775 -0.091774374 -0.11066136 0.16667971
0000f0 c1 d0 a8 bd 80 37 02 bd d7 06 dd 3a ab 7c 89 3d
       -0.08242942 -0.03179121 0.0016863 0.06713232
000100 a1 60 9e 3d 7a 31 3b bd 00 e8 a0 3b 8a 51 e6 bd
       0.07733274 -0.04570148 0.004910469 -0.11246021
000110 8e 57 8d bd 42 35 8a bc 1a 4c 99 3e e0 f5 89 bd
       -0.06901465 -0.016871098 0.29940873 -0.0673635
000120 05 1e 49 bc 27 80 74 3d 79 77 7a 3d 68 59 44 3e
       -0.012275224 0.059692528 0.061149094 0.19174731
000130 f9 ae 0e 3d d6 93 92 3d 89 78 85 bd e0 f5 56 be
       0.034834836 0.07157104 -0.06517131 -0.20992231
000140 ce 34 3c be 40 62 e9 3c a4 a5 f9 3b 64 16 8e be
       -0.18379518 0.028489232 0.007618623 -0.27751458
000150 b5 ee 17 3d 73 34 14 3d 26 64 18 3e 13 f0 1c bd
       0.037092883 0.036182832 0.14881954 -0.03831489
000160 bb 29 1d 3e 43 31 08 3e ce 17 db bc 71 6a 67 bd
       0.1534795 0.13300042 -0.02674475 -0.056497995
000170 5d a1 ec bd 7f 82 6c 3e 60 96 15 be fe 70 16 3c
       -0.11554215 0.23096655 -0.14608145 0.009182213
000180 c7 1d 4b 3e 6f 19 01 3e d2 4a 20 3d 6c 64 48 3e
       0.19835578 0.12607358 0.039133854 0.19569558
000190 00 c0 a1 bd 25 9e 1b 3e 31 b9 c4 bd 87 61 a9 3d
       -0.07897949 0.15197046 -0.09605635 0.08270555
0001a0 04 5b 34 be 1a 4a aa bd 43 9e f4 bd 1a 3f 82 bd
       -0.17612845 -0.08314915 -0.119442485 -0.06359692
0001b0 0f 07 53 be 7d 95 c3 bc a2 8e a8 3c 54 f3 9b 3d
       -0.20608161 -0.023874993 0.020575825 0.076147705
0001c0 54 f0 6e 3a 47 f9 4c 3e 4b 5f 1d 3e 20 4f 33 3e
       0.0009114791 0.20016967 0.15368383 0.17510653
0001d0 3d e5 eb bb df f2 15 bc 43 74 26 3d 61 cf 10 be
       -0.007198958 -0.009152143 0.04063822 -0.14141609
0001e0 97 95 47 3d 68 e7 b1 3c 29 62 92 3d 14 68 cd 3d
       0.048726644 0.021716788 0.07147629 0.10029617
0001f0 7a e6 36 be 38 da 78 bd 4f 0d ef bd 59 9f dc 3c
       -0.17861357 -0.060754985 -0.1167246 0.026931452

weight f4 [512, 128]
000000 f4 62 d8 3c d9 14 19 3d 57 d1 37 bd 21 9e 14 3e
       0.026414372 0.037373397 -0.044877376 0.14513446
000010 1a 9e 92 bc 9b 4e 05 3d f6 fd 5a bd 19 8d db bd
       -0.017897654 0.032545667 -0.053464852 -0.107202716
000020 48 06 e5 3d 1e be 03 be 18 e1 0f bd 0c 74 2f 3d
       0.11182839 -0.12865493 -0.035126776 0.04283528
000030 10 48 56 bd b2 53 05 be 9a dd 0c be ae 52 1d 3d
       -0.052314818 -0.13020208 -0.1375641 0.038408928
000040 78 5a eb bc 4e e9 2c bd 44 6d 92 3d 6c 26 ab bc
       -0.028729662 -0.042214684 0.07149747 -0.020892344
000050 63 04 01 be cb 5f 87 bc 28 f9 54 3c 6f de fe 3d
       -0.1259933 -0.01652517 0.012998857 0.124447696
000060 5a ce 1d 3d b5 e4 b6 3d 9a af e0 bd 45 8d cc bd
       0.03852687 0.08930341 -0.10970993 -0.099878825
000070 66 21 ae bd cd 8b cf bc fc 68 a4 3c 30 38 c6 bd
       -0.08502464 -0.025335217 0.020069592 -0.09678686
000080 1e da 45 bd 48 b3 2b bd 82 48 8d 3d e3 52 34 3d
       -0.048303716 -0.041919023 0.068985954 0.04402436
000090 cc 60 18 bc 4f 13 8c 3d b7 46 75 3d 86 f0 11 bd
       -0.009300422 0.0683962 0.059881892 -0.03562977
0000a0 d9 c2 ab bd 5f 7a f6 bd c7 02 21 3d e7 7a 38 3d
       -0.083867736 -0.12035059 0.03930929 0.045039084
0000b0 9c 95 3d 3d 58 c0 31 bd e6 36 1c bd df 32 0e 3c
       0.046285257 -0.043396324 -0.038138293 0.008679121
0000c0 33 7e da bd 37 91 21 bd 8a df 1d 3e 20 51 1a bc
       -0.10668602 -0.03944513 0.15417305 -0.009418756
0000d0 62 73 84 3d 89 b7 3d bc e1 49 23 3d c7 9f 10 3d
       0.0646732 -0.011579403 0.03986538 0.035308626
0000e0 16 d6 f9 3c a6 d7 c7 bc 3a 50 0a b8 e9 54 b9 bc
       0.030497592 -0.024394821 -3.297648e-05 -0.022623496
0000f0 be 12 18 3d 9d 86 23 bd 9a 65 20 3d 4c 7d d2 3d
       0.03712725 -0.0399233 0.039159395 0.10277805
000100 5d f6 44 3d 57 59 d6 38 55 67 60 bd 2a f8 6e bd
       0.048086513 0.00010220956 -0.054786045 -0.058342136
000110 6d 7f 9c bd 43 66 ed 3c 70 32 f5 3d 4b 7c 04 3e
       -0.07641492 0.028979426 0.11972511 0.12938039
000120 58 4b 7f bd f5 fb 4c 3c 1a 2d 7b ba 47 81 1f 3d
       -0.062327713 0.012511243 -0.0009581611 0.038941648
000130 e5 d7 d3 bc c5 4a 0c bc 44 ba c0 bc e1 1a 96 3d
       -0.025859782 -0.008562748 -0.023526318 0.073293455
000140 46 e4 e8 bc 80 fe 14 bd 05 32 00 bd a8 1a 88 3d
       -0.028429162 -0.036375523 -0.031297702 0.06645709
000150 21 d9 9e 3d 30 25 c1 bd b6 15 31 bd e7 c8 52 bc
       0.07756258 -0.09430921 -0.043233596 -0.012865282
000160 1d 65 6a bd 7e 1e 45 3c 51 0d 39 3d 43 3b 0c be
       -0.057225335 0.012031196 0.045178715 -0.13694482
000170 c2 5f 66 3d 8c 2e b7 3d e3 f8 d9 bd 00 dc 4e 3c
       0.056243666 0.08944425 -0.106431745 0.012625694
000180 fe dd 85 bc fb 2e 9e 3c 33 fa 99 bd 14 82 0b 3e
       -0.016341206 0.019309511 -0.07518425 0.1362384
000190 54 03 a8 3d 7c 4d 83 bd 87 51 b3 bb 29 a0 25 3e
       0.0820376 -0.06411263 -0.0054723653 0.16174378
0001a0 86 8a ef bc 77 78 b7 3d 60 65 bf 3d 92 e6 c0 bd
       -0.029240858 0.08958524 0.093455076 -0.09418978
0001b0 dc 30 8d bd d0 b6 47 3a 72 25 03 3c 43 ed 05 3d
       -0.06894085 0.0007618489 0.008004533 0.032696974
0001c0 e3 dd 13 3c 19 81 26 bc 20 3d 84 bd d5 9d 44 3d
       0.00902507 -0.010162615 -0.06456971 0.048002083
0001d0 ae 8b 39 3d d2 59 4f 3a 4c 87 8b bc 22 e9 82 3d
       0.045299225 0.00079098076 -0.017032288 0.06392123
0001e0 17 c2 aa 3d 94 ae 2d bd af 67 ed 3d 1c 02 84 3b
       0.08337801 -0.04240282 0.11592042 0.004028572
0001f0 06 30 cf bd 5c d1 76 bd 9e 27 38 bd 6b cd 2d bd
       -0.101165816 -0.060258254 -0.044959657 -0.04243223
000200 24 c1 35 bd 62 0b 35 3d d6 11 ad 3d ae 25 c1 bc
       -0.044373646 0.04420031 0.084506676 -0.023577537
000210 c6 8b 0f be e6 46 1a 3d 59 5e 06 be cf 69 97 3c
       -0.14018163 0.03766527 -0.13121928 0.01848307
000220 e0 43 a4 3d 17 30 dc bd bf 2a be 3d 53 bf 9d 3d
       0.08020759 -0.1075136 0.09285497 0.07702508
000230 65 d5 8c 3d b4 ab a8 bd 72 7e 9a bc 60 96 23 bc
       0.06876639 -0.08235875 -0.018859122 -0.009984583
000240 e6 5f d0 3c f5 94 05 3c 9c e6 eb bc 73 c8 75 3c
       0.025436353 0.00815319 -0.028796487 0.015001404
000250 97 7f 18 bb 31 40 6e bd 34 3e a3 bd 46 c9 8f 3d
       -0.002326941 -0.058166686 -0.07970849 0.07020812
000260 9f 28 eb 3b 18 64 bf bd a8 c5 5e 3d bc 2d f1 bc
       0.0071764733 -0.09345263 0.05438772 -0.029440753
000270 61 c5 e5 bd 22 19 94 3d a1 cb fa 3d 39 ed b5 3d
       -0.11219288 0.07231356 0.122458704 0.08883137
000280 e4 6e ce bc 87 48 92 3b b1 1a c1 3d a9 0f e2 bd
       -0.025199361 0.0044642123 0.09428919 -0.11038143
000290 d4 5f e0 3b 0f 2f 72 3d 05 79 6f 3c b5 32 e5 3c
       0.006847361 0.05912691 0.014616256 0.02797828
0002a0 a5 48 5f 3d 85 e9 3e bd cd ff c9 bd b6 d1 94 3c
       0.05451264 -0.04660942 -0.09863243 0.018166404
0002b0 5a 69 b1 3d 0b d4 cb bd 37 21 a6 bb 20 3b 28 bb
       0.08662672 -0.09952553 -0.0050698775 -0.0025670007
0002c0 b9 29 e5 3a a6 60 40 3d 7f 9f 61 3d 3f b5 3a bd
       0.0017483748 0.04696717 0.055083748 -0.045583006
0002d0 21 47 ba 3d 69 b7 65 bd 7d 86 73 3d 29 e1 b8 bd
       0.09095598 -0.056083117 0.05945443 -0.09027321
0002e0 6a 18 4c 3d 41 0c 85 3d 60 76 86 bd f3 a5 60 bd
       0.04982797 0.06496478 -0.06565547 -0.05484576
0002f0 74 9c d3 3d 30 01 1c 3d f1 aa ab 3d ca 11 73 bc
       0.103325754 0.03808707 0.08382214 -0.014835784
000300 2c b2 35 bd c1 11 ec bc 86 97 d1 bd a8 40 6e bc
       -0.04435937 -0.02881706 -0.10233979 -0.014541782
000310 d7 32 a5 bc 5b 85 9a bd 57 54 18 bd 5e 28 18 bd
       -0.020165844 -0.07544967 -0.037189808 -0.037147872
000320 5d 81 07 bd 4e 82 bc bc 43 e5 24 3d 51 72 69 bd
       -0.033082355 -0.023011353 0.040257704 -0.056993786
000330 bd c1 82 3d 05 0d 84 bd 9d a7 d9 3c 86 fb f3 bc
       0.06384609 -0.06447796 0.026569182 -0.029783022
000340 90 5f a9 3c 2a 66 9a bd c7 91 4c 3d dc 07 00 3e
       0.02067545 -0.075390175 0.04994371 0.12502998
000350 65 9a 58 bd ea 6b 8c 3d 1a 71 ed 3d d9 0f 24 3c
       -0.052881617 0.068565205 0.11593838 0.010013544
000360 f5 ad 2e bb 00 7e aa bb 28 2b 4d bd 1d 0d 05 bb
       -0.002665398 -0.0052030087 -0.050089985 -0.0020302006
000370 75 b4 83 3d 65 5a e5 ba 20 38 89 bd e9 dd 06 3d
       0.06430904 -0.0017498253 -0.06700158 0.032926474
000380 a1 15 96 3d 2e 44 30 3c 87 c9 43 bd ff 3c 83 3d
       0.07328344 0.010758443 -0.047799613 0.064081185
000390 f8 5b 8f 3d f9 fc 97 3d ae 9b 6d 3c 73 ec 38 3d
       0.069999635 0.074212976 0.014502449 0.04514737
0003a0 7c e2 7f 3d 3b 96 33 bd 3f 1e c2 bc 6d 41 85 bd
       0.06247185 -0.043844443 -0.023696063 -0.065066196
0003b0 0a 0a bc bc 78 cc f5 3c 29 f5 72 bd 7f 0c a1 bd
       -0.022954006 0.030004725 -0.059315834 -0.078637116
0003c0 65 20 4a 3c 08 84 7f bc a2 86 d4 ba a0 92 1a 3d
       0.012336825 -0.015595444 -0.001621444 0.03773749
0003d0 71 35 e4 bb c5 7f 33 bd b8 6c dc ba db 91 81 3d
       -0.0069643785 -0.043823022 -0.0016817069 0.06326648
0003e0 7a 28 16 3d 5b ae b7 bc c5 88 5b 3d e5 53 24 3d
       0.036659695 -0.022422006 0.05359723 0.04011907
0003f0 85 94 01 be 27 fd 30 bd d1 22 44 3d 47 9c 9f bd
       -0.12654312 -0.043210175 0.047884766 -0.077934794

bias f4 [512]
000000 4a fc 33 3d e8 b6 06 3e 81 d4 0b 3d c5 b6 01 3e
       0.043941773 0.1315571 0.034138206 0.12667377
000010 65 0a c7 3b 22 20 66 3d 73 13 f3 3c 95 78 f9 3d
       0.006074237 0.056182988 0.02967236 0.12181202
000020 e5 85 7a 3d 74 ac fd 3d dc 93 df 3d d1 75 59 3d
       0.061162848 0.123864084 0.10916874 0.053090874
000030 05 0e 81 3c a4 5d 0d 3d 64 e1 ca 3d 03 36 29 3e
       0.015753755 0.03451313 0.09906271 0.1652451
000040 3c 53 1a 3e a9 7b a9 3d 63 42 b9 3d 88 cf 1b 3e
       0.15070814 0.082755394 0.090458654 0.15215886
000050 64 a4 00 3e e9 17 8e 3d cb d3 43 3c cd f3 e9 3d
       0.1256271 0.06938154 0.011952351 0.114234544
000060 46 01 a1 3d a5 44 10 3e c2 ea 20 3e f3 99 15 3d
       0.07861571 0.14088686 0.15714553 0.03652377
000070 0a 10 a3 3d ee 0d 99 3d b7 e6 b4 3d 52 bb 10 3e
       0.079620436 0.0747336 0.08833068 0.14133957
000080 b2 7c f2 3d 50 6d d6 3d b1 12 d6 3d 34 59 0c 3e
       0.1184019 0.104700685 0.10452784 0.13705903
000090 af f9 18 3e cc f6 cc 3d 00 f4 6c 3c 9a a8 6e 3d
       0.14938997 0.1000801 0.014462471 0.05826626
0000a0 45 f0 8d 3d 7a 4f e4 3d 9e df 33 3e 34 b9 8f 3b
       0.069305934 0.111479715 0.17565772 0.0043860916
0000b0 c0 43 c6 3d 02 de 19 3b 93 52 22 3c b2 70 f8 3d
       0.09680891 0.0023478274 0.009907383 0.1213087
0000c0 57 1b 02 3e ce 62 ae 3d ef 7e 04 3e 47 0b eb 3d
       0.12705742 0.08514939 0.12939046 0.1147676
0000d0 41 de 16 3e 53 24 83 3d 9c 37 52 3d dd bf 91 3d
       0.1473322 0.06403413 0.051322564 0.07116673
0000e0 d4 8b 26 3c fd 4b 16 3c b3 f0 74 3d 5a 10 14 3d
       0.010165174 0.00917339 0.05979986 0.036148407
0000f0 69 39 2c 3c 4d bb d9 3d 29 c3 08 3e d5 43 06 3e
       0.0105117345 0.10631428 0.13355698 0.13111813
000100 20 a0 a0 bb 77 2a 0d 3e 0f 20 06 bc 80 c5 b6 3d
       -0.004901901 0.1378573 -0.008186354 0.08924389
000110 15 fd 26 3e df 77 cc 3c 6c f4 45 3d 23 1b b8 3d
       0.1630748 0.024959503 0.048328802 0.08989551
000120 14 14 3f 3c 8a 29 c0 3d e7 1c e5 3c 60 af 87 3b
       0.011662502 0.09382923 0.027967883 0.0041407794
000130 f3 78 eb bb fa 75 eb 3d f7 bb ca 3d 33 27 bb 3d
       -0.007186049 0.114971116 0.09899133 0.09138336
000140 39 78 ba 3d 52 9a 1a 3b ac 21 83 3d d2 54 3b 3d
       0.09104962 0.0023590517 0.06402907 0.045735188
000150 8c 72 5b 3d 7d 43 a5 3d a2 4e d0 3c b5 25 9e bc
       0.053576037 0.08069513 0.02542812 -0.01930509
000160 a2 c8 04 3e 06 5d d1 3d 16 97 13 3e f0 6c c1 3d
       0.1296716 0.10222821 0.14413103 0.09444606
000170 fd a4 55 3d a6 d0 d4 3d 15 28 e6 3d 0c 31 a4 3c
       0.0521593 0.10391359 0.11238114 0.020042919
000180 51 ae 31 3e 53 bd 05 3e f7 c9 fb 3d d9 aa d7 3c
       0.17351653 0.13060503 0.12294381 0.026326584
000190 57 d8 45 3d 07 07 14 3e d1 47 34 3d 37 70 ee 39
       0.04830202 0.14455806 0.044013802 0.00045478504
0001a0 86 e0 ff 3d 77 37 22 bc d8 09 4e 3d 31 00 92 3d
       0.12493996 -0.009900919 0.050302356 0.07128943
0001b0 88 e6 80 3d f0 a2 0a 3d 2e 97 9a 3d 7e eb 32 3d
       0.0629397 0.033846796 0.075483665 0.043681614
0001c0 8d f6 24 3d 12 0a c8 bc 26 0f f0 3d 7c ce 01 3d
       0.04027419 -0.024418864 0.11721639 0.03169106
0001d0 1d b3 48 3d 80 21 cf 3d 4b 2e fc 3d 6e e2 d6 3c
       0.04899894 0.101138115 0.12313517 0.026231017
0001e0 cc 6f 43 3c 83 29 57 3d ef c7 ee 3d c1 63 aa 3d
       0.01192851 0.052529823 0.11659228 0.08319808
0001f0 cc e2 dd 3d f8 67 e1 3d ad 1d 18 3e 7d 65 bb 3d
       0.10834274 0.110061586 0.1485507 0.09150217
000200 a4 c5 38 3d d1 45 ad 3c b2 1b 8c bd d8 23 14 bc
       0.04511036 0.021151455 -0.0684122 -0.009041749
000210 71 55 53 3d 47 00 1b 3d 2e a5 38 bc 95 67 71 3c
       0.051595155 0.03784206 -0.011269851 0.014734169
000220 62 0f af 3c 2c 04 fb bc de 2e f7 bc e1 b1 68 bd
       0.02136964 -0.030641638 -0.030173715 -0.056810264
000230 53 33 ef bd 23 ee cb bb 01 27 04 3b 3b 2c f8 3c
       -0.11679711 -0.0062234565 0.002016485 0.030294528
000240 ae 1f c0 3d 53 94 30 3d 03 7c 45 3b fa 23 9a 3d
       0.093810424 0.043110203 0.0030133731 0.07526393
000250 4a 19 ae 3d be b7 fd bd ac e4 8a bd 93 c0 da 3d
       0.08500917 -0.12388562 -0.06781897 0.10681262
000260 fe ee 50 3d 3c ea 29 bd 2c ab a1 3d c7 49 e3 bd
       0.05100917 -0.04148315 0.078939766 -0.11098056
000270 03 05 51 3b 62 e2 c3 bd 17 86 b3 3d b5 79 88 bc
       0.0031893856 -0.095646635 0.0876581 -0.016659597
000280 71 04 ab 3c 23 a3 0c bc 71 b7 07 3d c9 8b 15 bd
       0.020876141 -0.008583817 0.033133928 -0.036510263
000290 a6 b4 c0 bd 6d 34 ac bd 7b 40 b2 3b 8c 43 2c bd
       -0.09409456 -0.08408437 0.0054398156 -0.042056605
0002a0 d8 f5 d2 3c ca 47 3a bd 52 c4 4f 3d 7e d7 c9 bd
       0.025751993 -0.04547862 0.050724335 -0.09855555
0002b0 23 38 5e bd 8a cf 7b bd 03 c8 39 3c 1f 0f 2a bd
       -0.054252755 -0.06147722 0.01133919 -0.041518327
0002c0 42 0c be 3c f8 52 01 bc ec 6f 46 bd ff 57 af 3c
       0.023199204 -0.007893316 -0.04844658 0.021404264
0002d0 bd 85 94 3d 62 bc 31 3d bd 43 cf bc dd 08 9f bc
       0.07252071 0.043392546 -0.025300855 -0.019413406
0002e0 28 67 85 3d 8c 49 18 3d db 95 18 bd 35 5e 82 3d
       0.06513816 0.037179515 -0.03725229 0.06365625
0002f0 f5 29 22 bd 50 bb ce b9 db 77 9d 3d 49 3e 3c bc
       -0.039590795 -0.0003943094 0.07688876 -0.011489459
000300 01 76 ca 3c 26 a2 3a 3c 7e f4 b4 bd 40 0b 0d 3c
       0.024714472 0.011391198 -0.08835696 0.008608639
000310 9f be a4 bd ed 67 c3 bd c0 87 53 bd a1 2a c6 bc
       -0.080441706 -0.09541307 -0.051643133 -0.024190249
000320 63 02 9f bb 4b 0d 5b 3d f7 4b 15 be 2b ba e2 bd
       -0.0048525794 0.053479474 -0.1457976 -0.11070665
000330 0c 9e d5 bd bf f1 e1 bd 42 c2 d7 bb 87 23 6b 3c
       -0.10430536 -0.110324375 -0.0065844366 0.014351732
000340 c8 24 b2 3d 7c b7 0e bc 3a 61 46 3d 8b b9 84 bd
       0.08698422 -0.008710738 0.048432566 -0.06480702
000350 cc f5 e2 bd c7 25 93 bd 1b fb 7a bd 67 72 c3 3c
       -0.11082038 -0.0718494 -0.06127463 0.023858262
000360 d9 04 a7 bc 96 96 35 bd b2 92 58 3d d1 1c c7 bb
       -0.020388054 -0.044333063 0.052874275 -0.006076433
000370 29 cf 30 be af 80 94 bd 09 a3 69 bb af 26 76 bd
       -0.17266525 -0.07251107 -0.0035650155 -0.060095485
000380 1c 63 e4 3c b7 ca 7b bd 3e 4d 82 3c 0d 31 2b be
       0.02787929 -0.06147262 0.015905973 -0.1671793
000390 61 73 ae bd 6d 3e 32 be bd f1 bf bd ee 5c 70 bc
       -0.085181005 -0.17406626 -0.0937228 -0.014670594
0003a0 88 25 03 3d 91 62 e2 bc 72 77 a9 3c 65 84 b6 bd
       0.032018214 -0.02763489 0.020686839 -0.08911971
0003b0 05 1a 9a bd 48 89 fc bd 32 99 d4 bd 4e 27 64 3d
       -0.07524494 -0.12330872 -0.10380782 0.055701546
0003c0 81 22 b3 bd 65 fa 40 bd 2b 56 40 bd 2c 77 be bc
       -0.087468155 -0.047113795 -0.046957176 -0.023250185
0003d0 8b 95 40 be f1 30 59 bd 1a 45 a7 bd 22 53 41 3c
       -0.18807046 -0.05302519 -0.08167477 0.011799606
0003e0 54 17 1d be ff 63 6a bd 34 9c 78 3c 0c 87 fa bd
       -0.1534093 -0.05722427 0.0151739605 -0.122327894
0003f0 cb 4b f9 bd 73 7b 97 bd a2 c5 b3 bd ac e4 ac bd
       -0.121726595 -0.07396593 -0.0877793 -0.08442053

weight f4 [8, 16, 3, 3]
000000 c1 84 19 bd a4 03 8b 3c 31 35 ef 3c 01 59 d8 3c
       -0.03748012 0.01696951 0.029200168 0.026409628
000010 71 47 4e bd 26 d8 1a 3d 20 43 c3 3d 70 c1 30 3e
       -0.0503611 0.03780379 0.095342875 0.1726129
000020 77 71 a4 3d 47 57 2f bc 30 0c 57 3c 29 23 c1 3c
       0.08029454 -0.010701961 0.013125464 0.023576336
000030 70 18 ed 3c de 92 87 3d f2 9e d8 3d 46 eb 4b bc
       0.028942317 0.066198096 0.105771914 -0.01244623
000040 2a a7 a7 3c 53 63 20 3d 16 f0 54 bd 69 e2 67 bd
       0.020465452 0.039157223 -0.051986776 -0.056612406
000050 ab 1a 51 bd 54 0d 38 3d a3 99 2f bc bf 96 07 3b
       -0.051050823 0.044934586 -0.010717782 0.0020689217
000060 01 76 ad bc b8 81 3b 3c 75 e9 02 3e a8 a5 89 3c
       -0.021174433 0.011444502 0.1278437 0.016802624
000070 e6 8d 3b bd f0 af c3 bd 92 cf 97 3d 20 fc f7 bd
       -0.04578962 -0.09555042 0.07412638 -0.12108636
000080 47 d9 81 3d 1c a3 bb bd 1e 58 5a bd 0b e3 8e 3d
       0.063402705 -0.0916197 -0.05330669 0.06976899
000090 17 bf 9c bd d3 b8 8e 3c 6b 02 ec 3b 27 9a 7c 3d
       -0.07653635 0.017422115 0.0072024367 0.06167045
0000a0 ae 88 8b 3d 45 38 bd 3d c1 f8 b1 bb 58 b0 07 3e
       0.06813179 0.09239248 -0.005431265 0.13250864
0000b0 de 63 9c 3d ab 6a 91 bc e4 1b f1 3c c2 45 0d 3d
       0.07636236 -0.017751059 0.029432245 0.034490354
0000c0 ea df 0c 3d a1 14 90 bb b2 50 42 3d 72 35 1d bd
       0.03439323 -0.0043969904 0.04744024 -0.038381048
0000d0 16 f6 8a 3d 17 2f 09 3d cf c5 a9 bc 01 a3 db 3a
       0.067852184 0.033492174 -0.020724205 0.0016756953
0000e0 60 a7 28 3d ec c7 13 3b 82 fb 7b 3d ad 84 3f 3b
       0.041175246 0.0022549583 0.061519153 0.0029223368
0000f0 a5 26 b2 3d 8d a6 03 3e 8e 8c ce 3d fd 5c 7d bc
       0.08698777 0.12856503 0.100854024 -0.015464065
000100 37 4c 85 bc 2c 53 33 3d c4 36 87 bd 08 ca 04 3c
       -0.016271694 0.04378049 -0.066022426 0.008104809
000110 e4 40 dc 3d d8 20 ce 3d c7 93 2c bc 9e bc 3b 3d
       0.107545644 0.10064858 -0.01053328 0.045834176
000120 8e 56 b3 3c 65 13 11 ba 30 20 95 bc 3c 7b 55 bc
       0.021891858 -0.0005534201 -0.018203825 -0.01302987
000130 64 ec b4 bd 70 38 a3 bd fe 3d 5b bd db 42 cb bd
       -0.088341504 -0.07969749 -0.053525917 -0.09924861
000140 8b 17 a0 bd b0 3d 8a bd d8 a4 3a bd 0d 7c 2f 3c
       -0.078169905 -0.06750047 -0.045567364 0.010710728
000150 4c 8a 46 bd 67 88 34 bc ca 38 3c 3d 24 65 21 3c
       -0.048471734 -0.011018849 0.045952596 0.009850774
000160 00 29 b8 3c 9f 0f d7 3d 66 f4 bf bc 6b 0e ad 3d
       0.022480488 0.10501026 -0.023431968 0.08450016
000170 30 be df 3c 4b b7 de 3d 6c 55 24 3d d9 8f 2c 3e
       0.027312368 0.10874804 0.040120527 0.16851749
000180 85 d4 9e bd 4e 7e 3a 3d 4d 28 a0 3d f2 48 20 bd
       -0.07755379 0.04553061 0.07820187 -0.039132066
000190 81 a2 1e 3d 9c da 57 3d 75 8e 2f 3d f5 26 2a bd
       0.038729195 0.052698717 0.042860467 -0.04154106
0001a0 54 d7 d8 3c 34 9e d4 3b 5f 0d 23 3e 02 b4 32 3d
       0.026469864 0.006488586 0.1592307 0.0436287
0001b0 8d 16 96 bc 46 d1 cf 3b 3c f1 eb bc f2 be 09 bc
       -0.0183213 0.006342086 -0.028801553 -0.008407341
0001c0 b9 52 eb 3c 2c 4b 0b 3e 87 23 86 bc 90 5a 45 bd
       0.028725969 0.13602895 -0.016374363 -0.04818207
0001d0 18 a2 59 bd 62 c8 df 3c f2 33 a5 bc 7b 82 5c 3d
       -0.0531331 0.02731723 -0.020166371 0.053835373
0001e0 47 84 17 3d cb 15 3b 3e b7 40 66 3d 75 64 ba bb
       0.036991384 0.18270032 0.05621406 -0.005688245
0001f0 96 50 ac bc 2a 40 2e 3d d9 ee b8 3b cf ff ce 3c
       -0.02103452 0.04254166 0.0056437072 0.025268463
000200 b7 c1 6c 3d de d7 a8 3c d2 68 ab 3d 52 77 c3 3c
       0.05780193 0.020610746 0.08369602 0.023860607
000210 4b d2 a4 3c 8d cd 57 3d 05 47 92 3d 5b 29 bb bc
       0.020119807 0.052686263 0.07142452 -0.022846868
000220 6e cf 1a 3c 2d b7 14 3d 6a fa d2 3c 0f c7 bc 3c
       0.009448869 0.036307503 0.025754172 0.023044137
000230 55 00 04 3d 4a eb 01 3e 02 9c 21 3e 44 98 cf 3d
       0.03222688 0.12687412 0.15782169 0.10136464
000240 56 61 a7 bb 31 40 38 3d 06 fd 92 3c 21 5b 8e bc
       -0.005108039 0.044983093 0.017942917 -0.017377438
000250 e2 aa 66 bd 1b 09 d8 3d e2 50 2d 3c 6a b3 da 3d
       -0.05631531 0.10548612 0.010578366 0.10678752
000260 c9 30 91 3d 4c 82 8b bc ca 81 aa bc 8a 47 64 3c
       0.07089383 -0.017029904 -0.020813841 0.013933072
000270 c9 17 b6 bb cf 0b 78 bc 23 d4 fd 3c 8e ff 1b bd
       -0.0055570346 -0.015139534 0.030984944 -0.038085513
000280 c5 b4 71 bb fd 39 19 3c 35 25 39 bd 48 18 f3 bd
       -0.0036881429 0.009352204 -0.0452015 -0.11869866
000290 d1 ea a9 bc 7d 8e b9 3d 18 08 16 bc 30 2e 83 bd
       -0.020741852 0.090603806 -0.009157203 -0.06405294
0002a0 87 d8 af 3d 0f fc b8 3d f2 37 40 3e ba b1 2b 3b
       0.08586221 0.09032451 0.18771341 0.0026198463
0002b0 d2 63 f3 bd e8 c8 f8 bc 13 1b 65 3d 13 6d 47 be
       -0.118842736 -0.030369237 0.055934023 -0.19475202
0002c0 40 65 5a bb 93 4d 33 bb f1 f9 2b bd d3 6a d0 3d
       -0.003332451 -0.002735947 -0.04198641 0.10176625
0002d0 8a b6 24 3c 93 2a 48 3c 89 67 a5 3b 50 e5 f7 3c
       0.010053286 0.012217182 0.0050477427 0.030260712
0002e0 ab f5 b6 3d 76 23 b8 3d ed fb 43 3d 75 57 06 3e
       0.08933576 0.08991139 0.047847677 0.131193
0002f0 ad 7c c0 3d 6d 18 d8 3a 9f 77 73 3d e2 d5 11 3d
       0.0939878 0.0016486772 0.05944025 0.035604365
000300 12 63 30 3d 97 3d 45 3d 62 07 f2 3d 66 ce 32 bd
       0.04306323 0.04815444 0.118178144 -0.04365387
000310 bc 85 0c 3e 12 5d ea 3d 3e 63 87 bb 1d aa 41 3c
       0.1372289 0.11443533 -0.0041317036 0.011820343
000320 8a 4d 74 3b 09 7c 40 3c f9 6b 6a 3d d9 65 f1 bc
       0.0037277662 0.011748322 0.057231877 -0.02946751
000330 8a 3d 51 3d 4d e9 f9 3d e3 0c 80 3d e8 8e ec bc
       0.05108408 0.12202702 0.06252458 -0.028876737
000340 db 4f 28 3c 86 60 22 3b e5 52 57 3c eb 3e d1 3d
       0.010272945 0.002477677 0.013142322 0.10217079
000350 e4 db a8 3c d5 93 c0 3d 8a ef a9 3c cd 41 c5 3c
       0.020612665 0.09403197 0.020744104 0.024079228
000360 bf 69 31 3c b5 79 69 bc a4 f6 09 bb f4 28 a1 bb
       0.0108284345 -0.014250209 -0.002105155 -0.004918212
000370 e5 04 2c bd f8 a5 e1 bc 1c 2f d3 bc f4 ed 49 bd
       -0.041996855 -0.02754496 -0.0257793 -0.049299195
000380 2e 25 dd bc da e2 42 bc 23 4f 1a bb d6 d7 fc bc
       -0.026995268 -0.011894906 -0.0023545704 -0.030864637
000390 f5 d6 fc bc 4a f9 20 bb a8 10 9d 3b 43 43 81 3c
       -0.030864218 -0.002456265 0.0047932453 0.015779143
0003a0 51 89 8c 3d 05 63 1f 3e 52 5a 0c bd 21 b6 88 3c
       0.068621285 0.15565117 -0.034265824 0.016688408
0003b0 00 6d 92 3c c3 1a c2 3d 0e 53 ff 3c 9d 34 a0 3c
       0.01787424 0.09477761 0.031167533 0.019556338
0003c0 fa ae 8a 3c eb 97 aa 3d 20 8d 9f bc aa be 69 bb
       0.016929138 0.08329757 -0.019476473 -0.0035666623
0003d0 63 15 c9 3d cc 5a 63 bc e8 99 37 3d d0 da 91 3b
       0.09818532 -0.013876628 0.04482451 0.0044511333
0003e0 52 64 fb bb f7 73 ca bc 3c 80 e6 3d 64 5b 7c bb
       -0.007671871 -0.0247135 0.112549275 -0.0038506621
0003f0 2a 4a b5 bc 4c bf 94 bc 3f c8 6c bc 02 58 89 bc
       -0.02213009 -0.018157624 -0.014452039 -0.016765598

bias f4 [16]
000000 c1 92 a0 3e ef 20 ee 3e bd fe e7 bb 54 0b f4 3b
       0.31361964 0.465095 -0.0070799277 0.0074476395
000010 73 3a 7d 3c bf c7 92 3e d9 8f 99 3e bc 23 83 3d
       0.01545583 0.2866802 0.2999256 0.064033
000020 f8 be 18 be 40 27 0e bd c6 de bd 3d 95 70 7b 3e
       -0.14916599 -0.0347054 0.09271006 0.24554665
000030 dd 34 cb 3e c3 0a 9d 3d b6 0d 80 3d 5b f2 7f 3e
       0.3968877 0.07668068 0.06252615 0.24994795

weight f4 [16]
000000 e6 f2 61 3f 1c 6c 46 3f 63 4f 3b 3f 13 ed 4b 3f
       0.8826126 0.7750871 0.7316801 0.7965862
000010 c0 96 19 3f 6e 41 5e 3f 65 88 5b 3f 2f ff 56 3f
       0.5999565 0.8681859 0.85754997 0.8398313
000020 25 cc 62 3f 47 f4 32 3f 30 a1 45 3f cd 25 49 3f
       0.8859275 0.6990399 0.7719908 0.78573304
000030 44 65 4b 3f a1 7a 30 3f f4 f1 57 3f 57 9e 70 3f
       0.79451394 0.68937117 0.84353566 0.9399161
