Project_2/models/ex3d.pth (torch, 814803 bytes, 30 tensors)

weight f4 [16, 3, 3, 3]
0.13166015 0.04265442 -0.1267411 0.048156977 -0.18270749 -0.08934579 0.20623584 0.06531441
-0.22681203 0.27639797 -0.043042824 0.056003015 -0.006694535 -0.07405397 -0.17184347 0.12838356
-0.06515333 -0.029706929 -0.0645398 0.04514454 0.03300508 0.087234065 0.1251793 -0.11821157
0.07564685 -0.0939584 -0.059966937 -0.09380672 -0.027331334 0.06450282 0.06674006 -0.029910237
-0.03526548 -0.053358197 -0.041655753 -0.124294005 -0.18728557 0.007934231 -0.17469631 -0.08031836
-0.12929343 -0.0037235725 -0.14994924 -0.12835322 0.00889341 0.12222963 -0.18999584 -0.114375256
-0.06630892 0.048477344 -0.19122866 -0.115343586 0.017653247 0.024426851 -0.09969718 -0.03549508
0.14632075 -0.07360861 0.075812966 -0.060891304 -0.18106826 0.0051615746 0.1630978 -0.14860955
0.016786568 0.02779244 -0.048867002 -0.11304388 0.18648759 -0.0052114194 -0.088387914 0.19879057
-0.007955854 -0.031007376 0.18338029 -0.061313484 -0.12507008 0.1217947 -0.15892951 -0.03456087
0.09407239 -0.6384827 -0.5336219 -0.5897907 0.07571996 -0.081185624 0.043008305 -0.05626415
0.06537636 -0.019057896 -0.6215937 -0.81567204 -0.63849986 -0.07002794 0.09424668 -0.014258905
0.08711519 -0.07776198 0.010843204 -0.41276217 -0.36653373 -0.6285971 0.020409167 1.0514632e-05
0.0012461364 -0.024147173 0.023184147 -0.00092940626 0.13441868 0.103586376 -0.080048114 0.07353767
-0.12289369 -0.091235645 -0.12590003 -0.19366254 0.033279408 -0.20071965 0.17023133 -0.12760463
-0.054942213 -0.20391904 0.1026444 0.14992131 -0.1210772 -0.10751259 -0.14260356 -0.14818168
-0.095122874 0.10546536 0.10595026 0.13563402 -0.08249532 -0.037957817 -0.011413855 0.07873313
0.07269755 0.0024232552 0.07088621 0.088011906 -0.04721639 -0.10542283 0.05002639 0.060439516
0.0017257896 0.21606256 -0.056900132 0.040048726 4.0826526e-05 0.11968677 0.26032835 0.07804183
0.00608155 0.16810998 -0.13826528 -0.029944606 0.20585854 0.16096814 0.13422821 0.20122299
0.15747496 0.035943005 -0.08109826 -0.17535822 -0.17225364 -0.051186368 0.1502519 0.04086977
0.001184101 0.0063756905 0.1993849 -0.17029841 0.014467405 -0.098331325 0.1577371 -0.057110056
0.1055365 0.11297905 -0.006274794 -0.01876153 -0.059723876 -0.16427884 -0.14428744 -0.016724652
-0.07255393 -0.039692316 0.14235677 0.19401874 0.1792169 0.06648186 -0.0469007 0.040706843
0.16687869 0.006272516 -0.004214125 0.109907925 0.0055871718 -0.18778615 0.03383671 0.18894093
-0.056553368 0.20077954 -0.15194316 -0.13551293 0.15062056 -0.011750984 -0.030785056 0.17204316
0.05219029 -0.14914364 -0.11201296 0.07812077 0.006274026 0.08768876 0.15531045 -0.18512507
0.11314829 0.14864025 0.20901997 0.20271657 -0.024531431 0.13714446 0.021305082 0.12498496
0.0871518 0.07044749 0.019383837 0.12419491 -0.0017692456 -0.0046695415 0.043301813 0.08757136
-0.07103881 0.19386283 0.042710286 -0.0041137203 -0.04306689 -0.05783561 0.06192568 -0.06334957
0.06390509 0.13891828 0.122521766 -0.008876346 0.019660352 0.075249664 0.25281516 -0.009372062
0.008998496 0.31732747 0.240301 0.056082863 -0.037077006 0.040689867 -0.20996156 -0.08050048
00000000: ebd1 063e 67b6 2e3d 6bc8 01be 4040 453d
00000010: ac17 3bbe edfa b6bd 7d2f 533e 90c3 853d
00000020: 6a41 68be 0984 8d3e ac4d 30bd 6b63 653d
00000030: d45d dbbb 9ca9 97bd bcf7 2fbe fb76 033e
00000040: 1c6f 85bd f25b f3bc 712d 84bd 7be9 383d
00000050: 5630 073d c6a7 b23d 012f 003e e818 f2bd
00000060: bcec 9a3d 436d c0bd e49f 75bd bd1d c0bd
00000070: f6e5 dfbc 0e1a 843d 03af 883d 5006 f5bc
00000080: 8972 10bd 208e 5abd 399f 2abd db8d febd
00000090: cac7 3fbe 94fe 013c 97e3 32be f47d a4bd
000000a0: 7f65 04be 2e07 74bb 4b8c 19be 076f 03be
000000b0: aab5 113c 8753 fa3d 458e 42be 933d eabd
000000c0: f9cc 87bd 2e90 463d 72d1 43be 4239 ecbd
000000d0: 8b9d 903c d21a c83c 092e ccbd 4a63 11bd
000000e0: 1bd5 153e 1cc0 96bd d443 9b3d 2969 79bd
000000f0: f569 39be 6d22 a93b 1c03 273e 1a2d 18be
00000100: fc83 893c f9ac e33c c428 48bd 8d83 e7bd
00000110: 9af6 3e3e 8ec4 aabb b904 b5bd c18f 4b3e
00000120: 4559 02bc 2e03 febc 0bc8 3b3e d923 7bbd
00000130: 5f12 00be 806f f93d 6bbe 22be b38f 0dbd
00000140: 06a9 c03d 9a73 23bf 729b 08bf 86fc 16bf
00000150: 1113 9b3d a644 a6bd 7a29 303d 3d75 66bd
00000160: 0be4 853d 4e1f 9cbc c420 1fbf e2cf 50bf
00000170: ba74 23bf cf6a 8fbd 6704 c13d 2f9e 69bc
00000180: 7369 b23d ac41 9fbd b2a7 313c 9055 d3be
00000190: 4faa bbbe bdeb 20bf 2031 a73c 0068 3037
000001a0: 6655 a33a 4bd0 c5bc aeec bd3c 66a3 73ba
000001b0: 0da5 093e 1825 d43d 44f0 a3bd eb9a 963d
000001c0: b0af fbbd c1d9 babd f0eb 00be 794f 46be
000001d0: fd4f 083d 7489 4dbe 1f51 2e3e caaa 02be
000001e0: 160b 61bd 27d0 50be 3a37 d23d f984 193e
000001f0: 53f7 f7bd 902f dcbd ab06 12be f0bc 17be
00000200: c8cf c2bd 39fe d73d 73fc d83d a5e3 0a3e
00000210: 4ef3 a8bd a879 1bbd 2d01 3bbc d63e a13d
00000220: 74e2 943d 7acf 1e3b ca2c 913d 963f b43d
00000230: f965 41bd ede7 d7bd 79e8 4c3d 6d8f 773d
00000240: e433 e23a 813f 5d3e 1d10 69bd 220a 243d
00000250: 263d 2b38 561e f53d c249 853e 65d4 9f3d
00000260: bd47 c73b 0625 2c3e 6a95 0dbe 644e f5bc
00000270: 95cc 523e d5d4 243e 1f73 093e 660d 4e3e
00000280: 1e41 213e f938 133d d816 a6bd 1b91 33be
00000290: 4263 30be cca8 51bd a2db 193e 0f67 273d
000002a0: d633 9b3a 2beb d03b 8e2b 4c3e b562 2ebe
000002b0: b208 6d3c ef61 c9bd d685 213e 3cec 69bd
000002c0: 8523 d83d 8f61 e73d ca9c cdbb c8b1 99bc
000002d0: 06a1 74bd b638 28be 16c0 13be 2302 89bc
000002e0: 2897 94bd 6994 22bd f9c5 113e d9ac 463e
000002f0: a384 373e a427 883d f31a 40bd 38bc 263d
00000300: 3fe2 2a3e ae89 cd3b a516 8abb 6817 e13d
00000310: 9814 b73b 034b 40be 5d98 0a3d bb79 413e
00000320: 81a4 67bd 2799 4d3e fd96 1bbe e7c3 0abe
00000330: 473c 1a3e 3387 40bc f130 fcbc 152c 303e
00000340: 7cc5 553d 1cb9 18be 0d67 e5bd c8fd 9f3d
00000350: 5896 cd3b 2a96 b33d b409 1f3e 6d91 3dbe
00000360: 4aba e73d 2635 183e 5509 563e ef94 4f3e
00000370: 24f6 c8bc 996f 0c3e ff87 ae3c 1df8 ff3d
00000380: a57c b23d c646 903d daca 9e3c e759 fe3d
00000390: 08e6 e7ba f402 99bb 3e5d 313d 9d58 b33d
000003a0: cc7c 91bd fa83 463e fbf0 2e3d 63cc 86bb
000003b0: e866 30bd 08e5 6cbd c8a5 7d3d 6bbd 81bd
000003c0: ace0 823d 9840 0e3e b1ec fa3d 186e 11bc
000003d0: bf0e a13c 7f1c 9a3d fd70 813e 478d 19bc
000003e0: 6e6e 133c bf78 a23e 7711 763e 25b7 653d
000003f0: 0fde 17bd 6baa 263d 2a00 57be 70dd a4bd

bias f4 [16]
0.05823791 -0.007334423 0.051950395 0.010424166 -0.17582904 0.14014101 0.023152523 0.35202014
-0.053767897 0.37585983 0.3826132 0.81566525 0.11314206 0.21786761 0.07707916 0.25808963
00000000: e08a 6e3d 9955 f0bb f0c9 543d 1fca 2a3c
00000010: 870c 34be 2081 0f3e 5caa bd3c fc3b b43e
00000020: ba3b 5cbd b370 c03e e1e5 c33e 70cf 503f
00000030: 06b7 e73d b018 5f3e aedb 9d3d 5324 843e

weight f4 [16]
0.77751803 0.98175806 0.7919274 1.0734829 0.9962645 1.015637 0.79013497 0.9469328
1.0309035 0.8658027 0.7759806 1.0938025 1.0002636 0.85370183 1.0292814 0.7654343
00000000: 6c0b 473f 7f54 7b3f c1bb 4a3f e367 893f
00000010: 310b 7f3f 6500 823f 4946 4a3f 306a 723f
00000020: a5f4 833f 3fa5 5d3f aaa6 463f b801 8c3f
00000030: a308 803f 348c 5a3f 7ebf 833f 81f3 433f

bias f4 [16]
-0.058600202 -0.8016758 -0.076097034 -0.4539563 -0.686604 -0.27548602 -0.21488759 -0.028307287
-0.30773577 -0.058325257 0.499078 -0.10079867 0.11202851 0.061956238 -0.13081434 -0.19510429
00000000: c406 70bd a03a 4dbf c3d8 9bbd f66c e8be
00000010: 48c5 2fbf 810c 8dbe 7e0b 5cbe afe4 e7bc
00000020: 8b8f 9dbe 77e6 6ebd 2787 ff3e 886f cebd
00000030: 346f e53d d3c5 7d3d 32f4 05be 6bc9 47be

running_mean f4 [16]
0.07245852 6e-45 0.072595514 0.0013248896 6e-45 0.8615799 0.052418344 0.5444902
0.7278719 0.69259775 0.5570045 0.52318853 0.6085353 0.56174695 0.7235935 0.023091614
00000000: 2265 943d 0400 0000 f5ac 943d eba7 ad3a
00000010: 0400 0000 8090 5c3f 9eb4 563d b663 0b3f
00000020: d055 3a3f 164e 313f d997 0e3f afef 053f
00000030: f8c8 1b3f a6ce 0f3f 6c3d 393f a02a bd3c

running_var f4 [16]
0.01284424 6e-45 0.0145394765 6.979268e-05 6e-45 0.19253981 0.0127007365 0.0393156
0.18694599 0.04843356 0.044438735 0.038189802 0.09299239 0.06479747 0.14117247 0.00308556
00000000: a670 523c 0400 0000 fc36 6e3c a95d 9238
00000010: 0400 0000 2829 453e c016 503c 6509 213d
00000020: c56e 3f3e 4562 463d 6405 363d e96c 1c3d
00000030: cb72 be3d 89b4 843d 848f 103e 1b37 4a3b

weight f4 [8, 16, 3, 3]
0.0003332407 0.01119339 0.00073350954 0.007903538 0.012977676 -0.014609193 0.009677626 0.026875386
0.027947633 -0.04461778 0.053835474 -0.0024193837 -0.4470161 0.040375452 -0.09878824 -0.3919716
-0.08766844 -0.24368018 -0.012682028 0.0070996047 -0.019359477 0.034549225 -0.00059665827 -0.006398553
0.002857211 0.0049674297 -0.0071950713 -0.07968307 -0.006858607 -0.18747781 -0.031881083 0.02106522
0.082215175 -0.14228453 0.032779846 -0.01161004 -0.42559025 -0.21857505 -0.13552792 -0.75207424
-0.16711539 -0.27132848 -0.76505953 -0.4523415 -0.42472312 -0.002025508 -0.007753031 0.017078802
-0.07297381 0.015631983 -0.037819456 -0.031216096 0.03982679 0.029758165 0.030345822 -0.042627063
-0.027368886 0.0079396665 0.004550043 0.0036718298 0.020091372 0.0020473856 0.016750982 -0.0014679153
0.015704203 0.013690813 -0.044760298 -0.010066613 0.017438933 -0.0012844135 0.01429616 -0.0062667583
-0.015210361 -0.01163485 -0.0564732 -0.17918272 -0.026519684 -0.11588119 -0.10675912 -0.12933664
-0.039013136 -0.0349865 0.032488715 0.018561445 -0.060073983 -0.08189422 -0.0005490286 -0.08355475
-0.023374125 -0.057067707 0.010758004 -0.044785917 0.005569948 0.0060670087 0.038895726 0.019091217
-0.006771755 -0.013916033 0.02143153 0.0038234482 -0.10430306 0.01555335 0.039441023 0.00725273
0.0054814257 -0.009166953 -0.018902926 0.033177704 -0.001476749 0.06229937 0.03315868 0.011456028
0.024382519 0.034587953 -0.0967805 -0.012576697 0.026380438 0.05096835 0.044686604 0.05509562
0.04121055 0.04845204 0.014909863 0.04383057 0.015017629 0.026040139 -0.00181398 0.094551206
0.008542673 -0.09927079 -0.04831972 -0.038743936 -0.10711969 -0.0760846 -0.12184546 0.0089729335
-0.081594564 -0.016791413 0.012943886 0.027198164 0.0011652524 -0.0017336415 -0.012825588 -0.0033682627
-0.0038937244 0.056918163 -0.018911932 0.004245744 -0.04953559 0.008069492 0.043993294 -0.011945687
-0.05117309 -0.07856842 -0.09707142 0.12588644 -0.23879474 -0.1932257 0.012269047 -0.33080003
0.036606323 0.1042287 -0.035452116 0.01720583 0.004118444 -0.031518962 -0.014153065 -0.0658985
-0.032091483 0.018382948 -0.07742743 -0.2358585 0.01453351 -0.009427494 0.07264219 0.053376943
-0.07302822 -0.2861839 -0.23068386 0.06842858 -0.1745976 -0.08498667 0.121812806 -0.33256346
-0.47152784 -0.009412948 -0.36311153 -0.37520504 -0.054229993 0.01440542 0.08733473 -0.062397104
-0.0031797446 0.12429538 -0.14197241 0.0052466015 0.12969925 -0.12242104 -0.022119625 -0.018912721
-0.024582313 0.0034659277 -0.05182834 -0.05314499 0.014945039 -0.030159112 -0.042146385 0.036932655
0.028740529 0.041585345 0.033549257 0.106086954 0.002851999 -0.027116315 0.0252283 0.03582984
-0.15273944 -0.0020126915 0.10345176 -0.05832003 -0.07529333 -0.06712124 -0.066939004 0.02719907
-0.016411413 0.032010894 0.080965385 0.032940608 0.017056089 0.061992228 -0.06805861 0.019252954
-0.043897036 -0.020084633 -0.053974688 -0.08438369 -0.047911577 -0.02771314 -0.023748469 -0.04250554
0.02305734 0.014143271 0.12547582 0.041059952 -0.04700696 0.013778539 0.08784224 -0.07739439
0.079329155 0.10585839 -0.17197683 -0.05091231 0.03532251 0.04815455 0.01907462 0.028557291
00000000: cfb6 ae39 7b64 373c fe48 403a d77d 013c
00000010: 51a0 543c 665b 6fbc e88e 1e3c c529 dc3c
00000020: 6ff2 e43c 22c1 36bd 9682 5c3d 868e 1ebb
00000030: 4bdf e4be bb60 253d 7d51 cabd 80b0 c8be
00000040: 838b b3bd 4c87 79be 48c8 4fbc cda3 e83b
00000050: c497 9ebc 7d83 0d3d 0f69 1cba f4aa d1bb
00000060: 0c40 3b3b d2c5 a23b a2c4 ebbb e130 a3bd
00000070: 2abe e0bb 2ffa 3fbe bd95 02bd f890 ac3c
00000080: 6e60 a83d 09b3 11be 2944 063d 0a38 3ebc
00000090: f7e6 d9be 23d2 5fbe d5c7 0abe f087 40bf
000000a0: 4c20 2bbe 91eb 8abe f1da 43bf 4e99 e7be
000000b0: 4f75 d9be 63be 04bb 230d febb d8e8 8b3c
000000c0: 4b73 95bd a50e 803c 93e8 1abd e6b8 ffbc
000000d0: 6b21 233d 65c7 f33c cd97 f83c b799 2ebd
000000e0: b734 e0bc 6015 023c 8718 953b 15a3 703b
000000f0: a996 a43c 6e2d 063b 5b39 893c 1067 c0ba
00000100: 1aa6 803c 6f4f 603c 9356 37bd 6fee 24bc
00000110: 18dc 8e3c c459 a8ba 713a 6a3c 6159 cdbb
00000120: e134 79bc 19a0 3ebc 7150 67bd ad7b 37be
00000130: cf3f d9bc 1e53 edbd 87a4 dabd d370 04be
00000140: 3dcc 1fbd 014e 0fbd e312 053d 2c0e 983c
00000150: 2310 76bd 28b8 a7bd b0ec 0fba c11e abbd
00000160: 187b bfbc d4bf 69bd 5742 303c 7071 37bd
00000170: 1c84 b63b c2cd c63b 2051 1f3d 2f65 9c3c
00000180: 99e5 ddbb 1300 64bc 2d91 af3c d192 7a3b
00000190: d89c d5bd 7ad3 7e3c e98c 213d 4fa8 ed3b
000001a0: 889d b33b fd30 16bc 4fda 9abc 58e5 073d
000001b0: 798f c1ba a02d 7f3d 65d1 073d 10b2 3b3c
000001c0: d9bd c73c 19ac 0d3d db34 c6bd 7e0e 4ebc
000001d0: ca1b d83c 30c4 503d 4d09 373d f2ab 613d
000001e0: 65cc 283d a575 463d 7f48 743c af87 333d
000001f0: 800c 763c 2152 d53c 12c3 edba 10a4 c13d
00000200: 91f6 0b3c 7c4e cbbd e6ea 45bd f6b1 1ebd
00000210: 9161 dbbd 3ed2 9bbd 1d8a f9bd 3603 133c
00000220: 0d1b a7bd 258e 89bc 9812 543c afce de3c
00000230: 62bb 983a 5b3b e3ba 6a22 52bc 12be 5cbb
00000240: db2d 7fbb 0523 693d 32ed 9abc e21f 8b3b
00000250: d5e5 4abd e735 043c 5032 343d d8b7 43bc
00000260: e09a 51bd 7be8 a0bd 61cd c6bd 60e8 003e
00000270: 9c86 74be f5dc 45be 1d04 493c 9f5e a9be
00000280: 83f0 153d db75 d53d 3d36 11bd 3ef3 8c3c
00000290: 03f4 863b 071a 01bd 42e2 67bc cbf5 86bd
000002a0: 5c72 03bd d697 963c 4692 9ebd e484 71be
000002b0: f61d 6e3c c775 1abc 6ec5 943d c8a1 5a3d
000002c0: d28f 95bd b286 92be 6438 6cbe 4924 8c3d
000002d0: b7c9 32be 7e0d aebd fe78 f93d c245 aabe
000002e0: 196c f1be c438 1abc c1e9 b9be e01a c0be
000002f0: 4520 5ebd b604 6c3c 8ddc b23d 1b94 7fbd
00000300: 4363 50bb 948e fe3d 3761 11be afeb ab3b
00000310: e1cf 043e e2b7 fabd 3734 b5bc daee 9abc
00000320: d960 c9bc 9e24 633b f449 54bd 90ae 59bd
00000330: 09dc 743c 3e10 f7bc b0a1 2cbd b246 173d
00000340: 4271 eb3c 6555 2a3d f26a 093d 1e44 d93d
00000350: 9ae8 3a3b 0923 debc 94ab ce3c 4fc2 123d
00000360: ba67 1cbe 5ce7 03bb 84de d33d fce0 6ebd
00000370: 6433 9abd dc76 89bd 5117 89bd 96d0 de3c
00000380: 3a71 86bc db1d 033d 2ed1 a53d bbec 063d
00000390: 36b9 8b3c 90eb 7d3d 5062 8bbd 5fb8 9d3c
000003a0: 61cd 33bd 8788 a4bc 9014 5dbd 5bd1 acbd
000003b0: ee3e 44bd ab06 e3bc 268c c2bc 4a1a 2ebd
000003c0: bfe2 bc3c 2eb9 673c bc7c 003e 7b2e 283d
000003d0: 5f8a 40bd 62bf 613c a2e6 b33d f380 9ebd
000003e0: 5377 a23d 49cc d83d b21a 30be 6d89 50bd
000003f0: 56ae 103d b53d 453d 6142 9c3c fbf0 e93c

bias f4 [8]
0.1697079 0.17246908 0.26227364 0.08302744 -0.03266445 0.25706863 -0.07519176 0.16435584
00000000: e8c7 2d3e bc9b 303e bb48 863e 4a0a aa3d
00000010: 29cb 05bd 809e 833e 23fe 99bd e64c 283e

weight f4 [8]
0.96338135 0.7350319 0.7951537 0.82676667 0.94863605 0.9820548 0.7546635 0.88867337
00000000: 29a0 763f 0d2b 3c3f 318f 4b3f fba6 533f
00000010: d0d9 723f f267 7b3f a131 413f 1980 633f

bias f4 [8]
-0.31754646 -0.23349437 -0.40308592 -0.26412097 -0.4384708 -0.31599146 -0.382517 -0.36967167
00000000: 7395 a2be 2619 6fbe 4761 cebe dd3a 87be
00000010: 3f7f e0be a2c9 a1be 45d9 c3be 9b45 bdbe

running_mean f4 [8]
3.5165868 2.2650142 2.2053893 2.7740726 2.1756377 2.3825018 1.221512 2.075745
00000000: c20f 6140 fef5 1040 1925 0d40 688a 3140
00000010: a63d 0b40 e97a 1840 815a 9c3f 02d9 0440

running_var f4 [8]
1.1711336 0.54321307 0.5121759 0.79947007 0.8538458 0.71134114 0.470954 0.85883594
00000000: b5e7 953f 0310 0b3f f61d 033f 12aa 4c3f
00000010: a395 5a3f 741a 363f e220 f13e acdc 5b3f

weight f4 [128, 512]
-0.10334688 0.08967889 0.06381687 0.11603679 -0.04331051 0.064148806 -0.08896213 -0.027875068
-0.07695226 -0.0019315641 -0.012452536 0.04455317 0.050279148 -0.037169524 0.048541065 -0.004896034
0.1069449 -0.027777445 0.08187458 -0.056453627 -0.04281642 0.0330031 -0.037028816 0.010144258
-0.07450922 0.01539902 -0.05949191 0.04341048 0.03396117 0.06509274 0.020162066 -0.030139364
-0.015855614 -0.009221255 0.0006556427 -0.04407027 -0.008371887 -0.028811803 0.13147634 -0.034129422
0.062197804 0.026357811 0.023572696 -0.057607032 -0.0687934 -0.027759876 -0.014856297 0.050134882
-0.02067638 0.048034634 0.010107608 0.1234454 0.11818776 0.02105581 -0.038734216 -0.09067565
0.13905437 0.038046878 -0.10726576 -0.022362549 -0.07733958 -0.029090831 -0.05216016 -0.013849218
-0.016659675 -0.028481029 -0.06436292 -0.05165066 -0.056826625 -0.00011492113 0.043720752 -0.020468418
0.00122931 -0.06385978 -0.026812246 0.0087850215 -0.018685656 0.016064808 -0.05163787 0.047814578
-8.783033e-05 -0.032882746 -0.026469184 -0.0035813404 -0.02690402 0.031361744 0.008842013 0.06733914
0.03256134 0.0072301845 -0.00047959332 -0.018121917 0.031890564 -0.024941113 0.062051095 -0.0028712677
0.017265016 -0.023751887 0.041821595 -0.040768787 0.030474178 -0.014011599 0.011518625 -0.037882846
-0.079245314 0.023887718 0.043087177 0.0054135323 -0.023041373 0.061600298 -0.052427895 -0.051044147
-0.055255387 0.07048712 -0.060251154 -0.021034047 -0.047899038 0.077487744 0.023731753 -0.024756009
-0.036198106 -0.0076626344 0.01400588 -0.045424342 -0.062112756 0.043510124 0.064968705 -0.046604138
-0.027552195 0.007718486 -0.06907427 0.058679935 0.041238353 -0.10536261 0.006738791 0.011458199
-0.009723058 -0.032793008 0.088779055 -0.0024374498 -0.090681665 0.03426979 -0.025103584 0.020730752
0.05388018 0.015634242 0.03632113 0.020851433 0.06454179 -0.0067256265 -0.021725798 0.022260731
0.08669509 -0.006321175 -0.034499273 -0.031994406 0.036337864 0.015450934 -0.009050363 -0.018394792
-0.085220546 0.0043968856 0.056312315 -0.072072186 0.028872438 -0.0034853136 -0.0058991592 -0.04122168
-0.01739161 0.085766144 0.008440686 -0.0680432 0.0058550336 0.040993873 -0.008534549 -0.04449167
-0.02006148 0.02510594 -0.122372225 -0.017615024 -0.048752367 0.08374869 -0.040983126 -0.006990503
-0.006756393 0.019335367 0.029168168 0.045698047 0.018307269 0.03790029 0.035325844 -0.015234444
-0.041705497 -0.036624007 -0.024228543 -0.009534397 0.026125824 0.006618701 0.03097973 0.017198358
0.012511872 0.03509444 0.05946272 -0.016335906 -0.008703298 0.012559345 -0.07343066 0.020218434
-0.11548655 0.05904686 -0.004993429 0.06856954 0.04228212 -0.0026034582 0.031279717 0.034915794
0.037485283 0.011515553 0.10033836 -0.0010548243 -0.060328 0.00023210031 -0.014451676 0.07045387
-0.012270682 0.026825119 0.016689096 -0.0009825215 -0.030146625 -0.04716765 -0.06471031 0.08272303
-0.04375098 -0.016170343 -0.019268695 0.09076862 0.06219699 0.058490545 0.0026635313 -0.040333476
0.018967902 0.009036857 -0.0031446954 -0.07403027 -0.09148294 -0.043205943 0.049625356 0.05205738
-0.118095286 0.034412686 0.16625178 -0.04647637 -0.041834895 0.034592394 -0.002388383 -0.07582895
00000000: 87a7 d3bd 91a9 b73d 6bb2 823d b2a4 ed3d
00000010: 5d66 31bd 7360 833d c731 b6bd 415a e4bc
00000020: 2699 9dbd 892c fdba b905 4cbc 637d 363d
00000030: 82f1 4d3d 123f 18bd ffd2 463d e96e a0bb
00000040: ed05 db3d 868d e3bc dcad a73d eb3b 67bd
00000050: 4560 2fbd 422e 073d 87ab 17bd 1a34 263c
00000060: 4a98 98bd 2c4c 7c3c caad 73bd 30cf 313d
00000070: de1a 0b3d 584f 853d eb2a a53c d4e6 f6bc
00000080: a2e3 81bc bf14 17bc 70df 2b3a 0783 34bd
00000090: 3d2a 09bc bb06 ecbc bca1 063e 4bcb 0bbd
000000a0: 20c3 7e3d 56ec d73c 871b c13c 5af5 6bbd
000000b0: 8ee3 8cbd ae68 e3bc d367 73bc 3c5a 4d3d
000000c0: 8361 a9bc f7bf 443d 619a 253c f1d0 fc3d
000000d0: 6d0c f23d 3c7d ac3c c5a7 1ebd 28b4 b9bd
000000e0: 4564 0e3e 0bd7 1b3d 27ae dbbd aa31 b7bc
000000f0: 3764 9ebd e54f eebc e4a5 55bd d5e7 62bc
00000100: df79 88bc 0c51 e9bc b5d0 83bd a48f 53bd
00000110: 09c3 68bd d001 f1b8 8814 333d 62ad a7bc
00000120: cc20 a13a ebc8 82bd 5ba5 dbbc 0def 0f3c
00000130: a912 99bc 589a 833c 3b82 53bd 38d9 433d
00000140: 8d31 b8b8 0fb0 06bd e7d5 d8bc ecb4 6abb
00000150: d265 dcbc 2c75 003d 17de 103c 1ae9 893d
00000160: 0a5f 053d 2feb ec3b ed71 fbb9 6a74 94bc
00000170: ae9f 023d 4e51 ccbc 4a29 7e3d e12b 3cbb
00000180: 5d6f 8d3c 5193 c2bc 1f4d 2b3d 2cfd 26bd
00000190: fca4 f93c e890 65bc 9db8 3c3c 0b2b 1bbd
000001a0: 5e4b a2bd 2db0 c33c 2e7c 303d 0064 b13b
000001b0: 43c1 bcbc 9850 7c3d a2be 56bd ab13 51bd
000001c0: 7953 62bd 8d5b 903d eac9 76bd 984f acbc
000001d0: c831 44bd e5b1 9e3d 1869 c23c 1dcd cabc
000001e0: 7744 14bd d616 fbbb eb78 653c e00e 3abd
000001f0: f269 7ebd ac37 323d 500e 853d fbe3 3ebd
00000200: 24b5 e1bc 5aeb fc3b d076 8dbd 5f5a 703d
00000210: 8ce9 283d 5ac8 d7bd 13d1 dc3b 2bbb 3b3c
00000220: 764d 1fbc f651 06bd cbd1 b53d 9fbd 1fbb
00000230: 4fb7 b9bd 7b5e 0c3d 08a6 cdbc 8ad3 a93c
00000240: 77b1 5c3d 6213 803c 77c5 143d a0d0 aa3c
00000250: 7c2e 843d a562 dcbb 4dfa b1bc 235c b63c
00000260: 328d b13d dc21 cfbb 1c4f 0dbd 910c 03bd
00000270: 03d7 143d ea25 7d3c f947 14bc adb0 96bc
00000280: 1c88 aebd c013 903b bea7 663d 959a 93bd
00000290: e485 ec3c dc69 64bb bc4d c1bb 10d8 28bd
000002a0: da78 8ebc 29a6 af3d ce4a 0a3c 3c5a 8bbd
000002b0: 95db bf3b 31e9 273d 7ed4 0bbc e63c 36bd
000002c0: f957 a4bc f9aa cd3c 4a9e fabd 624d 90bc
000002d0: 90b0 47bd 6f84 ab3d ecdd 27bd 9710 e5bb
000002e0: bb64 ddbb 3465 9e3c 15f2 ee3c e02d 3b3d
000002f0: 20f9 953c 563d 1b3d d5b1 103d e499 79bc
00000300: 62d3 2abd 0e03 16bd f07a c6bc 2936 1cbc
00000310: d305 d63c b0e1 d83b 34c9 fd3c 92e3 8c3c
00000320: 98fe 4c3c 30bf 0f3d 2e8f 733d e1d2 85bc
00000330: 4798 0ebc b6c5 4d3c d062 96bd 21a1 a53c
00000340: 3684 ecbd 1fdb 713d eb9f a3bb 306e 8c3d
00000350: 0430 2d3d c89e 2abb 291f 003d dd03 0f3d
00000360: 2b8a 193d bbab 3c3c 337e cd3d 0842 8aba
00000370: 7e1a 77bd f45f 7339 b9c6 6cbc 1e4a 903d
00000380: f80a 49bc 5ac0 db3c 92b7 883c f3c7 80ba
00000390: 0ef6 f6bc de32 41bd d786 84bd b16a a93d
000003a0: 3a34 33bd ab77 84bc 62d9 9dbc e6e4 b93d
000003b0: 45c2 7e3d c893 6f3d a48e 2e3b b734 25bd
000003c0: 9362 9b3c 530f 143c 3c17 4ebb 2f9d 97bd
000003d0: 685b bbbd b7f8 30bd f543 4b3d 1f3a 553d
000003e0: f1db f1bd 51f4 0c3d e83d 2a3e 025e 3ebd
000003f0: 115b 2bbd c1b0 0d3d 6b86 1cbb 354c 9bbd

bias f4 [128]
0.060943257 -0.15894616 -0.0822322 -0.007518203 -0.24659722 0.04864528 -0.04803438 -0.12619302
0.037842695 -0.10657904 0.039112706 0.088381864 0.075609036 -0.09167232 -0.017438006 0.18515408
0.114012785 -0.050938286 0.027990585 -0.08618348 -0.015944641 -0.23506768 0.15932827 -0.020739742
0.146264 -0.0034977607 -0.0007908469 -0.0009356945 -0.12865716 -0.1270671 0.06552167 0.016535094
0.03509896 -0.08449756 -0.058591016 -0.07930403 -0.17133024 -0.037984822 -0.04587362 -0.060519207
0.085689135 0.056522634 -0.16632697 0.33565843 0.008168673 -0.0010321133 -0.07587256 0.09985479
-0.062400512 -0.052817017 0.0070363837 0.0350444 0.00017251137 -0.13971873 -0.1474666 -0.15811016
-0.07276096 0.098184235 0.10144809 -0.10754265 0.14696035 -0.11325145 -0.13750666 -0.001034688
0.08770189 -0.03759414 0.22134785 -0.17844503 0.0195188 -0.1396885 -0.10813394 -0.04980256
0.046451725 -0.061597586 0.012025215 0.12905096 -0.060737286 -0.04516117 0.16490377 -0.09960665
-0.019391468 -0.07383175 -0.16894172 0.15426719 0.038570967 0.24400803 -0.06593255 -0.01796839
-0.01239454 -0.056825705 0.11868562 -0.17360327 0.08686269 -0.19858687 0.18247235 -0.0709054
0.07487296 0.084694356 -0.033458658 -0.043641828 0.059192292 0.064383976 -0.048590213 -0.14798364
0.093704686 0.0077108713 0.115955494 -0.20119835 0.072776824 -0.07299511 -0.055353325 0.025740106
-0.018830884 0.14042424 -0.0007023088 0.064493574 -0.064243786 0.023674592 -0.08070335 -0.0073885303
0.0044660275 -0.14821568 0.07463007 0.0036437276 0.019973984 0.06578761 0.060154118 0.02762899
00000000: a39f 793d c8c2 22be 5b69 a8bd 425b f6bb
00000010: fb83 7cbe 4640 473d b3bf 44bd be38 01be
00000020: f100 1b3d 1d46 dabd a534 203d 8d01 b53d
00000030: e9d8 9a3d b3be bbbd 26da 8ebc 0899 3d3e
00000040: 897f e93d aaa4 50bd 834c e53c f780 b0bd
00000050: 569e 82bc 95b5 70be f326 233e 64e6 a9bc
00000060: 3bc6 153e b03a 65bb d650 4fba 6549 75ba
00000070: b4be 03be e11d 02be 3a30 863d 9b74 873c
00000080: edc3 0f3d 0f0d adbd 22fd 6fbd 276a a2bd
00000090: 3271 2fbe f995 1bbd fae5 3bbd fde2 77bd
000000a0: c97d af3d 4784 673d 9e51 2abe 6cdb ab3e
000000b0: e6d5 053c fa47 87ba 1363 9bbd ab80 cc3d
000000c0: ae97 7fbd a856 58bd 7791 e63b b78a 0f3d
000000d0: 2be4 3439 6d12 0fbe 7c01 17be a1e7 21be
000000e0: b303 95bd d114 c93d 04c4 cf3d 523f dcbd
000000f0: c67c 163e 60f0 e7bd 8cce 0cbe 5e9e 87ba
00000100: 0c9d b33d 50fc 19bd 03a9 623e 4bba 36be
00000110: e4e5 9f3c 810a 0fbe 5475 ddbd c5fd 4bbd
00000120: 2a44 3e3d c04d 7cbd 6805 453c ef25 043e
00000130: a9c7 78bd ebfa 38bd 89dc 283e 92fe cbbd
00000140: dbda 9ebc 1a35 97bd 0fff 2cbe 38f8 1d3e
00000150: 97fc 1d3d 3edd 793e a507 87bd 7232 93bc
00000160: 7812 4bbc 12c2 68bd 7211 f33d 0ec5 31be
00000170: 11e5 b13d 5b5a 4bbe 08da 3a3e da36 91bd
00000180: ff56 993d 3c74 ad3d f20b 09bd c6c1 32bd
00000190: 9e73 723d bfdb 833d 8806 47bd 0689 17be
000001a0: 3ee8 bf3d 7aab fc3b 137a ed3d f106 4ebe
000001b0: 040c 953d 767e 95bd 2bba 62bd eadc d23c
000001c0: 3a43 9abc 5fcb 0f3e 251b 38ba 3515 843d
000001d0: 3f92 83bd 38f1 c13c cc47 a5bd 7c1b f2bb
000001e0: c157 923b dac5 17be a6d7 983d 9bcb 6e3b
000001f0: 7ba0 a33c a8bb 863d 2a64 763d 3156 e23c

weight f4 [128, 512]
-0.022127494 0.008086012 -0.008460424 0.016139869 0.011206451 -0.038365092 -0.029914673 0.0006091179
-0.04102512 -0.046091862 -0.047447003 -0.026355991 -0.068789154 -0.040662248 -0.031621046 -0.06348131
-0.034937095 -0.03653885 0.0004007305 -0.033585686 -0.09312599 -0.033199944 -0.07218388 -0.012202876
-0.01344813 -0.0075720055 -0.053611003 -0.08189394 -0.073485985 -0.1259892 -0.071019396 -0.052132796
-0.014748631 -0.03951684 0.023723882 -0.049679868 0.008657025 -0.03616029 -0.046813756 -0.08753471
-0.00728042 -0.022649148 -0.013276803 -0.15100135 -0.07349862 -0.06398554 -0.085778244 -0.026024383
-0.026679268 -0.07555496 -0.023583803 -0.0015026863 -0.0010736926 -0.0032216115 -0.052234437 -0.0346286
-0.046436615 -0.062134273 -0.009897095 -0.08451476 -0.0928091 -0.028648289 -0.068505846 -0.10194633
0.05407056 0.010888426 0.008213075 -0.005331428 0.0478728 0.028538235 0.00122579 -0.012857789
0.0050589517 0.0004943631 0.00046910468 -0.0148892235 -0.0049506365 -0.047107592 -0.030670634 -0.02594393
0.036008175 0.023104722 0.0066855126 -0.048281997 -0.0125298025 -0.05341208 -0.03923742 0.009476386
-0.028403994 -0.04951149 0.018879391 -0.078200735 -0.0036669606 -0.028512422 0.026908439 0.034502454
0.01955637 -0.06276206 -0.060275093 -0.041646313 -0.04105938 -0.015466936 -0.07652691 -0.04113538
0.004861452 -0.0019356044 -0.03796247 -0.06412214 -0.08520151 -0.06278583 -0.0024526522 0.020476388
-0.02171996 0.02383755 0.003600128 -0.06293386 -0.069958776 -0.02711083 -0.03904981 -0.039645646
-0.018937867 -0.028170042 -0.04192913 -0.048512805 -0.040937044 -0.030855717 -0.04347952 -0.036429286
-8.798912e-05 -0.024882164 -0.024292782 0.016578127 -0.013552222 -0.019866716 -0.000874676 0.016103603
-0.030146731 0.009183594 -0.036684047 -0.030769564 0.0043156566 0.011299747 0.005304506 -0.017172068
-0.027268272 0.006713151 0.027031371 -0.019356314 -0.042959575 -0.030458685 -0.038317166 -0.035692666
-0.014798828 -0.019224048 -0.05356641 -0.057794306 -0.022170946 0.0057328525 -0.038920276 -0.05231324
0.00027251546 -0.01223195 -0.05223956 -0.04941565 -0.033678778 -0.0136822 -0.022819443 0.0040330803
-0.05304892 -0.007793661 -0.0483562 -0.011729423 -0.077820584 -0.040101197 -0.037743445 -0.060999114
-0.011705152 0.0077019995 -0.03864182 -0.010596505 -0.044050034 -0.028227774 -0.028044075 -0.061411113
-0.0072805225 -0.056262728 -0.056944177 -0.05028077 -0.031007614 -0.029433373 -0.02912441 -0.051575765
0.03387756 0.015309128 -0.019419799 0.012154309 0.014177185 0.0047826758 0.027613964 -0.023402102
-0.060947515 -0.00065236946 -0.014557358 -0.025461538 0.030504333 -0.034195106 -0.01801883 0.019994477
-0.031672522 0.010990122 -0.030147044 -0.04235814 -0.05759625 -0.01808182 -0.043705344 0.0016980865
0.016156802 0.0047466964 0.016936332 -0.020785363 -0.03490456 0.041248534 -0.019041097 0.0017467601
-0.006664569 -0.0014814476 -0.025917277 -0.046069175 -0.0881779 -0.050744765 0.022763407 0.025826842
-0.032013346 -0.004207797 -0.046868518 0.0124951685 -0.033709846 -0.017202867 0.015431733 -0.035291504
0.01972168 -0.035889555 -0.07402937 -0.06865983 -0.029281462 -0.014418909 -0.020789148 0.04248719
-0.003350368 -0.0742324 -0.05839719 -0.09288137 -0.0745433 -0.067401595 -0.03047739 -0.048279826
00000000: b844 b5bc 317b 043c 979d 0abc c237 843c
00000010: 439b 373c b724 1dbd 9e0f f5bc 36ad 1f3a
00000020: f509 28bd d2ca 3cbd ca57 42bd 85e8 d7bc
00000030: 54e1 8cbd 758d 26bd 1285 01bd 7d02 82bd
00000040: 331a 0fbd c3a9 15bd 2319 d239 2591 09bd
00000050: d7b8 bebd aafc 07bd 24d5 93bd 92ee 47bc
00000060: 8c55 5cbc 961e f8bb 3697 5bbd 03b8 a7bd
00000070: d27f 96bd 5003 01be 9e72 91bd 3389 55bd
00000080: 3ea4 71bc 69dc 21bd 9658 c23c 1e7d 4bbd
00000090: 32d6 0d3c d01c 14bd c8bf 3fbd 6645 b3bd
000000a0: 9790 eebb b58a b9bc f386 59bc 19a0 1abe
000000b0: 7286 96bd da0a 83bd 81ac afbd 1631 d5bc
000000c0: 7b8e dabc 8fbc 9abd d232 c1bc c9f5 c4ba
000000d0: 25bb 8cba ac21 53bb c7f3 55bd b8d6 0dbd
000000e0: 5234 3ebd 8280 7ebd 6d27 22bc 1316 adbd
000000f0: b312 bebd d1af eabc cb4c 8cbd 3dc9 d0bd
00000100: 1779 5d3d 5e65 323c 2290 063c 42b3 aebb
00000110: 4516 443d 04c9 e93c b0aa a03a 7aa9 52bc
00000120: 90c5 a53b 2598 013a 2af2 f539 eef1 73bc
00000130: f338 a2bb e4f3 40bd fb40 fbbc 5d88 d4bc
00000140: 4f7d 133d 1d46 bd3c 2512 db3b 58c3 45bd
00000150: cd49 4dbc a0c6 5abd 6bb7 20bd d842 1b3c
00000160: 7eaf e8bc 8fcc 4abd f4a8 9a3c b527 a0bd
00000170: 6451 70bb e292 e9bc 166f dc3c 7252 0d3d
00000180: ae34 a03c 6589 80bd 04e3 76bd 5395 2abd
00000190: e12d 28bd 0869 7dbc 24ba 9cbd 927d 28bd
000001a0: d14c 9f3b 1bb4 fdba 897e 1bbd 7852 83bd
000001b0: 217e aebd db95 80bd adbc 20bb 19be a73c
000001c0: 0fee b1bc f746 c33c 20f0 6b3b 78e3 80bd
000001d0: 8c46 8fbd 8817 debc b2f2 1fbd 7963 22bd
000001e0: 9623 9bbc dcc4 e6bc e1bd 2bbd 5db5 46bd
000001f0: 9aad 27bd 21c5 fcbc 9517 32bd e036 15bd
00000200: cd86 b8b8 aed5 cbbc a801 c7bc dace 873c
00000210: 240a 5ebc 86bf a2bc 834a 65ba b4eb 833c
00000220: 47f6 f6bc c976 163c 0342 16bd 7410 fcbc
00000230: 5a6a 8d3b 9322 393c 6cd1 ad3b 70ac 8cbc
00000240: b661 dfbc fef9 db3b e570 dd3c 2291 9ebc
00000250: 61f6 2fbd 7e84 f9bc 76f2 1cbd 7932 12bd
00000260: c976 72bc c07b 9dbc 7468 5bbd b9b9 6cbd
00000270: d89f b5bc a7da bb3b de6a 1fbd 6846 56bd
00000280: 68e0 8e39 8468 48bc 26f9 55bd 1168 4abd
00000290: c2f2 09bd 4e2b 60bc d7ef babc ee27 843b
000002a0: d349 59bd f861 ffbb 2711 46bd c42c 40bc
000002b0: 6660 9fbd 2741 24bd df98 1abd 35da 79bd
000002c0: f7c6 3fbc 0e61 fc3b e346 1ebd f79c 2dbc
000002d0: cf6d 34bd ef3d e7bc b0bc e5bc 388a 7bbd
000002e0: 7391 eebb bf73 66bd 4c3e 69bd 35f3 4dbd
000002f0: ae03 febc 421e f1bc 5196 eebc 1c41 53bd
00000300: 32c3 0a3d 23d3 7a3c 4516 9fbc de22 473c
00000310: 6c47 683c feb7 9c3b ae36 e23c c4b5 bfbc
00000320: 1aa4 79bd c603 2bba fc81 6ebc b794 d0bc
00000330: 39e4 f93c 2b10 0cbd 3a9c 93bc 75cb a33c
00000340: 0cbb 01bd ea0f 343c eff6 f6bc bb7f 2dbd
00000350: 0cea 6bbd 5320 94bc 6004 33bd 5492 de3a
00000360: 455b 843c 2d8a 9b3b 10be 8a3c 1146 aabc
00000370: 15f8 0ebd 39f4 283d 13fc 9bbc 8bf3 e43a
00000380: 7562 dabb 222d c2ba 7850 d4bc 08b3 3cbd
00000390: 9d96 b4bd bed9 4fbd 537a ba3c d092 d33c
000003a0: 6d20 03bd 8fe1 89bb 34f9 3fbd 89b8 4c3c
000003b0: 5613 0abd 07ed 8cbc 61d5 7c3c d38d 10bd
000003c0: 5c8f a13c ed00 13bd b69c 97bd 869d 8cbd
000003d0: addf efbc 4a3d 6cbc 014e aabc 0c07 2e3d
000003e0: d991 5bbb 2807 98bd e431 6fbd 9638 bebd
000003f0: 28aa 98bd d909 8abd b8ab f9bc 11c1 45bd

bias f4 [128]
-0.19939613 -0.1509995 -0.1667414 -0.09186122 -0.06331914 -0.09609563 -0.16809767 -0.077744246
-0.1757549 -0.13280265 -0.065707915 -0.1388112 -0.10543187 -0.13421316 -0.12686788 -0.15072985
-0.11635021 -0.1756124 -0.16480441 -0.17034273 -0.065858364 -0.11341324 -0.10423938 -0.13187006
-0.09082293 -0.1276415 -0.1486286 -0.13564582 -0.1603889 -0.099445775 -0.11315217 -0.13855806
-0.10355619 -0.12178516 -0.12374166 -0.17058066 -0.14330916 -0.19463857 -0.118916474 -0.12759212
-0.16590747 -0.10074269 -0.07290578 -0.18345666 -0.14077048 -0.08638348 -0.17541401 -0.11306645
-0.09720217 -0.08405072 -0.18680573 -0.17592734 -0.07762421 -0.13198252 -0.17143838 -0.13988174
-0.1054589 -0.08858969 -0.1461625 -0.09096747 -0.10779454 -0.14477113 -0.14118752 -0.10846614
-0.20550574 -0.14098258 -0.19182286 -0.11338233 -0.13036846 -0.081159666 -0.13097298 -0.10748363
-0.13786438 -0.134833 -0.110620804 -0.07905328 -0.114394724 -0.1731653 -0.11373283 -0.10395015
-0.09524288 -0.05811184 -0.071208164 -0.14938109 -0.12848434 -0.19039038 -0.1610264 -0.11882022
-0.18141915 -0.18011646 -0.19849475 -0.15294707 -0.14681868 -0.111979894 -0.19145738 -0.07367519
-0.07047945 -0.14087938 -0.11100912 -0.060434673 -0.1127088 -0.117839165 -0.115878165 -0.12556198
-0.15640055 -0.056862235 -0.120433494 -0.15630886 -0.20457844 -0.13868426 -0.18315175 -0.10462299
-0.17778802 -0.2093679 -0.18378228 -0.17837587 -0.16569534 -0.13075323 -0.15246448 -0.1406432
-0.18767379 -0.16306375 -0.17531306 -0.10150519 -0.17223829 -0.14848748 -0.09028366 -0.13664272
00000000: 802e 4cbe 9d9f 1abe 42be 2abe bc21 bcbd
00000010: 77ad 81bd c9cd c4bd cc21 2cbe 6038 9fbd
00000020: 18f9 33be 6bfd 07be df91 86bd 8624 0ebe
00000030: aaec d7bd 2d6f 09be a7e9 01be ed58 1abe
00000040: 0549 eebd bdd3 33be 7dc2 28be 536e 2ebe
00000050: c0e0 86bd 3345 e8bd 757b d5bd f208 07be
00000060: 5f01 babd 74b4 02be 1932 18be bde6 0abe
00000070: fd3c 24be 3aaa cbbd 53bc e7bd 2ae2 0dbe
00000080: 4515 d4bd 7f6a f9bd 446c fdbd b2ac 2ebe
00000090: a3bf 12be 554f 47be 7b8a f3bd 82a7 02be
000000a0: a6e3 29be 2f52 cebd a04f 95bd 10dc 3bbe
000000b0: 2326 10be d2e9 b0bd bb9f 33be 628f e7bd
000000c0: ee11 c7bd c922 acbd 004a 3fbe 4c26 34be
000000d0: 71f9 9ebd 6d26 07be 8b8d 2fbe 293d 0fbe
000000e0: d6fa d7bd 836e b5bd 9fab 15be 274d babd
000000f0: 62c3 dcbd e23e 14be 7693 10be 7f23 debd
00000100: 1970 52be bd5d 10be 366d 44be ff34 e8bd
00000110: 4f7f 05be 0a37 a6bd c81d 06be 6120 dcbd
00000120: 522c 0dbe a911 0abe 298d e2bd b0e6 a1bd
00000130: c847 eabd 3f52 31be c2ec e8bd d1e3 d4bd
00000140: b30e c3bd ae06 6ebd 96d5 91bd 5bf7 18be
00000150: 6691 03be b2f5 42be 1be4 24be 0458 f3bd
00000160: f1c5 39be 7370 38be 3542 4bbe 289e 1cbe
00000170: a357 16be b755 e5bd 670d 44be 05e3 96bd
00000180: 8857 90bd af42 10be c058 e3bd 598a 77bd
00000190: dfd3 e6bd a955 f1bd 8851 edbd 5293 00be
000001a0: 7727 20be 60e8 68bd d6a5 f6bd 6e0f 20be
000001b0: 037d 51be 3f03 0ebe 228c 3bbe 9444 d6bd
000001c0: 100e 36be 8a64 56be 6c31 3cbe 2aa8 36be
000001d0: 0aac 29be 2de4 05be a61f 1cbe c504 10be
000001e0: 8f2d 40be 2ffa 26be 4485 33be f4e1 cfbd
000001f0: 3c5f 30be 1a0d 18be a4e6 b8bd 12ec 0bbe

weight f4 [512, 128]
-0.054151956 0.055564307 -0.12180572 0.017591158 0.09494348 -0.105928615 0.05197506 0.08108838
0.008560292 0.06241557 0.035007786 0.12197216 -0.039187413 0.13515025 0.0954237 -0.10184947
-0.05073438 -0.07462795 -0.025331903 -0.008465133 -0.13898696 0.041604545 -0.06511044 -0.0015799532
-0.020845365 0.022067817 0.1124862 -0.12080442 0.083742194 0.0058605415 -0.12927786 5.1053037e-05
-0.11967708 -0.061888624 0.08190046 -0.0065104277 0.074840106 -0.0810234 0.08648499 0.06261474
-0.03709545 -0.0062826253 0.06643759 -0.021841735 -0.045912527 -0.11385694 -0.017712839 -0.09989714
-0.0548207 -0.07489801 -0.035332687 -0.16292264 0.025066072 -0.16488667 0.055950772 -0.049365036
0.058905825 0.0026380173 -0.120073706 -0.0054033874 -0.11186874 0.023136139 0.040002618 -0.06672648
0.038577046 0.109021395 0.0771893 0.09338501 -0.014203105 0.00501811 -0.050396193 0.073683575
0.08524277 0.0805838 -0.034667157 -0.080547415 0.10498389 -0.032835428 -0.02757275 0.09063221
0.027252382 0.021557575 0.058880907 -0.058253653 -0.10131801 0.015528686 0.11306178 0.010411346
0.024406178 -0.014857085 -0.070319094 0.09032544 -0.00043940978 -0.032660346 -0.07065049 0.06912294
0.010226231 0.07810705 0.08899368 0.036678854 -0.07678265 0.073077604 -0.017557181 0.06254235
-0.12710823 -0.10149167 0.0154219875 -0.004851235 0.00064571097 -0.15362063 -0.07959586 0.041940484
0.16182052 -0.027344264 0.26661566 -0.11318455 -0.17195396 -0.014942502 -0.014524686 0.08284962
-0.01609854 0.0778946 0.053507127 -0.1275615 -0.102955416 0.074927725 -0.13285904 0.023689775
0.038976535 -0.03070836 -0.0011125603 -0.071762405 0.1122689 -0.014711245 -0.0038596622 0.019242926
-0.047338076 -0.06938905 0.06836224 0.062293354 -0.079400524 0.06884763 -0.030345777 -0.069498844
0.010994523 0.01448585 0.10043091 -0.18033311 0.093342826 0.03574629 -0.097068496 0.07047206
-0.027252194 0.013620006 0.021348286 -0.005012642 0.0784175 -0.07505486 0.04113297 -0.050781347
-0.17405482 -0.0012600941 0.043596573 0.042151727 0.018922765 0.018274086 -0.06628602 0.06714497
-0.17539102 0.0047386014 0.07720772 -0.040047377 0.012148588 -0.13133019 0.013877694 -0.10814929
0.041772243 -0.05992025 -0.07021233 0.018058002 0.11411323 -0.041965067 0.02471723 0.0011310257
0.106473394 -0.027541058 -0.097742505 -0.020339714 0.02658141 -0.00014373532 -0.051440496 -0.07945669
-0.021024533 0.021869006 -0.076286264 0.03271638 -0.10946054 0.06081221 0.01623409 0.06516481
0.016605368 0.098539785 0.04688964 0.016670333 -0.021755861 0.014218532 -0.0053020455 0.023432408
-0.06669113 -0.008900222 0.02670677 -0.106861755 -0.071535625 -0.01818422 -0.022207135 0.058060557
-0.06545896 0.00667472 0.093383364 0.09233402 0.008783884 0.009491787 -0.06060218 -0.02715038
-0.073707946 0.0057984684 -0.018772759 0.033064626 0.05706495 -0.116300985 -0.029356396 -0.003343025
0.031790964 0.03458974 0.075337246 -0.046980463 -0.1023366 -0.07478381 -0.030611381 -0.10789776
0.03021408 0.029035335 0.20693074 -0.045829207 -0.038094517 0.017628405 -0.0147244595 0.01213918
-0.044139877 0.11309855 0.01936397 -0.07229016 -0.008492861 -0.05994605 0.03818992 0.07535731
00000000: 71ce 5dbd 6697 633d 4775 f9bd 551b 903c
00000010: ba71 c23d 1af1 d8bd cde3 543d aa11 a63d
00000020: 7840 0c3c 78a7 7f3d 5364 0f3d 8acc f93d
00000030: fb82 20bd d464 0a3e 806d c33d 7496 d0bd
00000040: dace 4fbd 8ad6 98bd da84 cfbc 57b1 0abc
00000050: 9952 0ebe 8769 2a3d 9f58 85bd 6f16 cfba
00000060: e6c3 aabc 91c7 b43c 2a5f e63d 4f68 f7bd
00000070: 0781 ab3d c909 c03b 6a61 04be c821 5638
00000080: 4219 f5bd ed7e 7dbd 6ebb a73d 6d55 d5bb
00000090: c545 993d 99ef a5bd 0b1f b13d 283c 803d
000000a0: 66f1 17bd 7bde cdbb 6e10 883d 70ed b2bc
000000b0: c60e 3cbd d42d e9bd 841a 91bc df96 ccbd
000000c0: ac8b 60bd 2164 99bd 02b9 10bd 31d5 26be
000000d0: 5d57 cd3c 0dd8 28be a32c 653d fe32 4abd
000000e0: 3c47 713d 96e2 2c3b 34e9 f5bd e60e b1bb
000000f0: 701b e5bd 0088 bd3c c9d9 233d e5a7 88bd
00000100: f702 1e3d 9c46 df3d 6c15 9e3d a440 bf3d
00000110: 24b4 68bc f56e a43b 3d6c 4ebd 6ae7 963d
00000120: c393 ae3d 1f09 a53d 26ff 0dbd 0bf6 a4bd
00000130: cb01 d73d 717e 06bd 3fe0 e1bc 619d b93d
00000140: 6340 df3c 8399 b03c 1b2d 713d 629b 6ebd
00000150: d17f cfbd 086c 7e3c ef8c e73d 5a94 2a3c
00000160: 77ef c73c 226b 73bc 7503 90bd 8bfc b83d
00000170: 9560 e6b9 dbc6 05bd 34b1 90bd 5490 8d3d
00000180: ec8b 273c 97f6 9f3d 5242 b63d 913c 163d
00000190: 3940 9dbd b6a9 953d 14d4 8fbc 3416 803d
000001a0: a928 02be ddda cfbd 81ac 7c3c 1cf7 9ebb
000001b0: ee44 293a ba4e 1dbe 2703 a3bd c9c9 2b3d
000001c0: 47b4 253e 1401 e0bc d981 883e 4dcd e7bd
000001d0: b314 30be 65d1 74bc f3f8 6dbc 10ad a93d
000001e0: 16e1 83bc 3487 9f3d 4a2a 5b3d 7b9f 02be
000001f0: 4ada d2bd b573 993d 330c 08be 0f11 c23c
00000200: dca5 1f3d 1990 fbbc 54d3 91ba 2bf8 92bd
00000210: 3ded e53d 6f07 71bc 63f2 7cbb 57a3 9d3c
00000220: 92e5 41bd d91b 8ebd 8101 8c3d 5127 7f3d
00000230: be9c a2bd fcff 8c3d b597 f8bc 6955 8ebd
00000240: 5f22 343c 0f56 6d3c b9ae cd3d 3ea9 38be
00000250: 862a bf3d b46a 123d d9cb c6bd a853 903d
00000260: fe3f dfbc 7226 5f3c 9ae2 ae3c 1741 a4bb
00000270: 5b99 a03d 5db6 99bd 0c7b 283d 1a00 50bd
00000280: 6d3b 32be be29 a5ba 5292 323d 4aa7 2c3d
00000290: ea03 9b3c 89b3 953c f7c0 87bd 4d83 893d
000002a0: b499 33be 4546 9b3b 151f 9e3d b808 24bd
000002b0: df0a 473c 6c7b 06be 445f 633c 607d ddbd
000002c0: 5f19 2b3d f06e 75bd 7bcb 8fbd 60ee 933c
000002d0: 32b4 e93d 90e3 2bbd ca7b ca3c ed3e 943a
000002e0: b90e da3d c99d e1bc 392d c8bd 799f a6bc
000002f0: 42c1 d93c a8b7 16b9 45b3 52bd 30ba a2bd
00000300: a43b acbc a126 b33c f93b 9cbd 9c01 063d
00000310: d92c e0bd 3916 793d 5bfd 843c 2175 853d
00000320: fb07 883c 3acf c93d 5a0f 403d 3990 883c
00000330: 5939 b2bc d8f4 683c c8bc adbb 52f5 bf3c
00000340: 5c95 88bd 3dd2 11bc 28c8 da3c 56da dabd
00000350: 4581 92bd 13f7 94bc bdeb b5bc e8d0 6d3d
00000360: 590f 86bd 9cb7 da3b c73f bf3d 9e19 bd3d
00000370: 48ea 0f3c 7183 1b3c fe39 78bd 796a debc
00000380: 31f4 96bd 1401 be3b 54c9 99bc c66e 073d
00000390: f0bc 693d 362f eebd d37c f0bc a716 5bbb
000003a0: 3e37 023d f9ad 0d3d 6a4a 9a3d 966e 40bd
000003b0: da95 d1bd 4128 99bd b8c4 fabc 80f9 dcbd
000003c0: 8583 f73c 83db ed3c a7e5 533e 68b7 3bbd
000003d0: ff08 1cbd 7269 903c dc3e 71bc 69e3 463c
000003e0: 04cc 34bd 36a0 e73d 30a1 9e3c dd0c 94bd
000003f0: a425 0bbc fd89 75bd 096d 1c3d ef54 9a3d

bias f4 [512]
-0.10755703 -0.09694188 0.03779562 0.011439382 0.019994674 0.05462366 0.020006862 0.033435885
-0.032564525 -0.061197855 -0.0061375033 -0.053809386 -0.13548121 -0.07646143 -0.0954663 -0.09931201
-0.0523955 -0.07198909 -0.048955705 -0.11879027 -0.25794786 -0.03878029 -0.035581473 -0.109898984
-0.13711195 -0.106825754 -0.060993847 -0.1423892 -0.19789416 -0.13052465 -0.08243383 -0.11719854
-0.10324927 -0.15934218 -0.13612393 -0.2268548 -0.11798224 -0.25951174 -0.06775762 -0.13572037
-0.0013058342 -0.10944902 -0.12069245 -0.20762227 -0.13407697 -0.17144561 -0.13774027 0.01169581
-0.023788907 -0.046623733 -0.1588525 -0.1686341 -0.21533829 -0.19174571 -0.08054183 -0.037690856
-0.102422066 -0.023676207 -0.104913 -0.16710034 -0.20194688 -0.118307434 -0.028068284 -0.0007200299
-0.09181706 0.022267561 0.022238268 0.008997482 -0.020948121 -0.0016085369 -0.0129098995 -0.056922603
0.07150156 -0.00075612805 -0.014469745 0.04753347 0.07468229 -0.021254506 -0.045828525 -0.02249242
-0.019333443 0.0043937564 0.009735803 0.0066243564 -0.05465593 -0.01777033 0.038126335 -0.057562534
0.024849212 0.0019745696 -0.053171735 -0.045638792 0.027859068 -0.059920996 -0.08181015 -0.063727975
-0.057165224 -0.010642727 -0.022926271 -0.04862245 -0.097580396 0.010424982 -0.055256356 0.014949563
0.040567253 0.012313379 -0.10538021 -0.03220689 -0.11454066 0.0048403186 -0.027960185 -0.052748393
0.073766716 0.026246687 -0.020866476 -0.016880864 -0.01641538 -0.08061629 0.05153656 0.004078063
0.03734462 -0.102342896 -0.07982409 -0.17392725 -0.022477247 -0.09090712 -0.0705268 0.015762784
0.08119547 0.103485726 0.016705463 0.023354014 0.034406714 0.09100184 0.07540982 0.042845957
0.08155165 0.10887659 0.1269577 0.04729917 -0.032947686 -0.04953044 0.08007519 0.11056125
0.12961295 0.08372374 0.09719724 0.1516957 0.12318161 0.14915696 0.07551139 0.010418507
0.11798247 0.058355734 0.07859876 0.0438697 0.0962854 0.095174156 0.04928014 0.069352895
0.0828451 0.08007605 0.025127735 0.06364366 0.13887054 0.012963045 0.042665657 0.017785877
0.09792625 0.13872264 0.0235967 0.11385644 0.06952423 0.09710087 0.1273638 0.11741439
0.04952647 -0.0065394696 0.05524525 0.106371306 0.12062377 0.055094775 0.013432004 0.062186714
0.11898952 0.112093195 0.0909014 0.118595704 0.02194301 0.13709597 0.12346322 0.103560224
0.12614836 0.09304568 0.0036182364 0.118256904 0.09110941 0.094556 0.009027434 0.034803845
0.097470604 0.12386735 0.01520103 0.1248992 0.056335542 0.028981902 0.09843924 0.024108239
0.12581028 0.03144237 0.06979857 0.15316486 0.13229336 0.19566265 0.08237941 0.049971655
0.16322435 0.022224728 0.16303854 0.11092304 0.16765036 0.1670301 0.14250985 0.041625988
0.13103792 0.17011522 0.13956816 0.09724927 0.16391487 0.20626022 0.13570808 0.13425396
0.1086923 0.06961349 0.20582679 0.12041705 0.12983629 0.18368366 0.1842033 0.04226323
0.08691941 0.027569678 0.08357367 0.08444083 0.22025847 0.11993222 0.012397985 0.11671889
0.08209759 0.11561991 0.11685578 0.059480213 0.19488621 0.15330586 0.13258715 0.1041773
00000000: dc46 dcbd 7789 c6bd 94cf 1a3d 3f6c 3b3c
00000010: dfcb a33c 0fbd 5f3d 6ee5 a33c 11f4 083d
00000020: 6162 05bd 9aaa 7abd 1c1d c9bb 3b67 5cbd
00000030: 96bb 0abe cf97 9cbd d683 c3bd 1864 cbbd
00000040: aa9c 56bd 046f 93bd c785 48bd 5048 f3bd
00000050: be11 84be 15d8 1ebd e1bd 11bd b812 e1bd
00000060: 1367 0cbe 76c7 dabd afd4 79bd 79ce 11be
00000070: c4a4 4abe 41a8 05be 11d3 a8bd ca05 f0bd
00000080: 5a74 d3bd 992a 23be 1264 0bbe a04c 68be
00000090: aca0 f1bd b9de 84be 82c4 8abd 48fa 0abe
000000a0: 8628 abba cf26 e0bd 9a2d f7bd ef9a 54be
000000b0: 794b 09be 708f 2fbe c90b 0dbe c89f 3f3c
000000c0: f4e0 c2bc 87f8 3ebd 3baa 22be 6bae 2cbe
000000d0: a481 5cbe fd58 44be 1df3 a4bd ba61 1abd
000000e0: a9c2 d1bd 9bf4 c1bc a0dc d6bd 5a1c 2bbe
000000f0: 2acb 4ebe 2b4b f2bd 75ef e5bc 63c0 3cba
00000100: 950a bcbd 766a b63c 072d b63c 2d6a 133c
00000110: 659b abbc 8bd5 d2ba 0b84 53bc ad27 69bd
00000120: 696f 923d e536 46ba 8212 6dbc 75b2 423d
00000130: 07f3 983d ee1d aebc b1b6 3bbd 0642 b8bc
00000140: 2b61 9ebc 80f9 8f3b eb82 1f3c 2111 d93b
00000150: e5de 5fbd 1593 91bc 5c2a 1c3d b1c6 6bbd
00000160: 9390 cb3c c867 013b 9bca 59bd beef 3abd
00000170: b338 e43c b86f 75bd 148c a7bd d083 82bd
00000180: 1526 6abd d55e 2ebc e0cf bbbc 5628 47bd
00000190: 3bd8 c7bd 8bcd 2a3c 7d54 62bd 03ef 743c
000001a0: d929 263d 0ebe 493c 94d1 d7bd 5feb 03bd
000001b0: 4b94 eabd 899b 9e3b c20c e5bc b30e 58bd
000001c0: 0113 973d 4b03 d73c 2cf0 aabc bd49 8abc
000001d0: 8c79 86bc 271a a5bd 0018 533d 46a1 853b
000001e0: acf6 183d 2799 d1bd d07a a3bd fc19 32be
000001f0: 3422 b8bc 832d babd 5b70 90bd f420 813c
00000200: d049 a63d 53f0 d33d e5d9 883c eb50 bf3c
00000210: 0eee 0c3d 2c5f ba3d 7770 9a3d 3e7f 2f3d
00000220: 8d04 a73d b1fa de3d 3301 023e c6bc 413d
00000230: 27f4 06bd 6ee0 4abd 76fe a33d f06d e23d
00000240: 42b9 043e 5a77 ab3d 590f c73d 1e56 1b3e
00000250: a446 fc3d 9abc 183e b7a5 9a3d 63b2 2a3c
00000260: cba0 f13d 6c06 6f3d 63f8 a03d b7b0 333d
00000270: 4831 c53d abea c23d f9d9 493d e408 8e3d
00000280: b1aa a93d e9fe a33d aed8 cd3c 9b57 823d
00000290: 1434 0e3e f462 543c 2fc2 2e3d b0b3 913c
000002a0: 8f8d c83d 4f0d 0e3e de4d c13c 912d e93d
000002b0: b862 8e3d d2dc c63d a86b 023e f576 f03d
000002c0: 45dc 4a3d 0c49 d6bb d848 623d 33d9 d93d
000002d0: 9809 f73d 0fab 613d e811 5c3c 7fb7 7e3d
000002e0: c7b0 f33d 1e91 e53d 832a ba3d 4ee2 f23d
000002f0: d4c1 b33c e362 0c3e 49da fc3d 6217 d43d
00000300: 092d 013e bc8e be3d ef1f 6d3b ad30 f23d
00000310: 9297 ba3d 93a6 c13d cde7 133c 7a8e 0e3d
00000320: ab9e c73d 2aae fd3d be0d 793c 27cb ff3d
00000330: 19c0 663d 746b ed3c 839a c93d a47e c53c
00000340: 69d4 003e b7c9 003d 8df2 8e3d 40d7 1c3e
00000350: e977 073e ca5b 483e 89b6 a83d 14af 4c3d
00000360: 4924 273e a210 b63c 93f3 263e 9e2b e33d
00000370: 89ac 2b3e f009 2b3e 1aee 113e 0380 2a3d
00000380: ce2e 063e af32 2e3e f5ea 0e3e a02a c73d
00000390: 4dd9 273e e135 533e 0ff7 0a3e df79 093e
000003a0: 129a de3d 8491 8e3d 42c4 523e 379d f63d
000003b0: cef3 043e 9217 3c3e ca9f 3c3e 351c 2d3d
000003c0: ce02 b23d ced9 e13c ac28 ab3d 50ef ac3d
000003d0: 708b 613e 069f f53d eb20 4b3c 500a ef3d
000003e0: c822 a83d 22ca ec3d 1552 ef3d 86a1 733d
000003f0: 4090 473e 36fc 1c3e edc4 073e e95a d53d
